sounds_classify_BiLSTM/cnn.pth (torch, 684615 bytes, 10 tensors)

conv1.0.weight f4 [16, 1, 5, 5]
00000000: f0f9 373e 3ae8 213d 8fa2 35be 2f1e 913d
00000010: 31a0 02bd 15ec e7bc 211c cfbc ea33 2dbe
00000020: 2575 173e 586d 683d d697 4bbe 29d3 42be
00000030: 49d1 39bd 29f1 4bbe 1ad3 203d cfac 523e
00000040: 4f91 b73d ca91 e4bc 7810 da3d 6361 08bc
00000050: 3402 523e 963f 2bbe 65d6 0dbd f00e efbd
00000060: cf88 84bc 8c9a e53d 5dd7 39be f63a f63d
00000070: dc10 eebd 9766 06bd 2187 f8bc bbf8 eb3d
00000080: 3376 023c 2859 fcbd ad75 b33d 9316 c73d
00000090: d72e 463e d617 113d 42cc 3cbd 8146 9ebd
000000a0: 84e6 06bc 524e 933d 8f4e ba3d 96ce 9b3c
000000b0: 971b 3dbe 11bb 49bd 574c e53c fb0b c03d
000000c0: b287 17be 59d1 5bbc 7f87 583e fd2c cf3d
000000d0: 6dc3 e2bd 9d07 f83d 4fc7 04bd a9d9 183d
000000e0: 0c47 ee3d 5f24 6fbd d398 10be 00e4 023e
000000f0: 4cfe 643d 2422 8a3d 1639 2abe 0078 35be
00000100: e761 48be 1cf5 18be 29a7 443e ad1e b2bd
00000110: 576a 65bc 81ae 913b e98f a9bd 1085 cdbd
00000120: 55c6 2cbe 0ebf 463d aa61 c03c 14b6 29bb
00000130: d5c3 253d 27f6 403e 5e27 283e 0528 103e
00000140: 178d 95bd a2d4 213e 9660 2c3e a72b 833d
00000150: 51a0 babd 5184 9e3d c215 fe3d 0d48 f1bd
00000160: ee3f 4a3e 0d7a 493e aa57 15be 22ed abbb
00000170: 0689 2abc 2fc6 07bd 89ca f63c c93b adbd
00000180: 1068 0e3e 76ff 0d3e 7153 22be 3bb7 e1bd
00000190: d0d9 c6bd 0dca 18be ab8d 89bd 6549 40be
000001a0: b45a 263e 3050 933d 0cf9 753c 98d0 a23d
000001b0: 7b0e f2bc beaa d73c 782c b6bd 2338 113e
000001c0: 9c2a f03d 5e00 d9bd 9ec6 53bd 5954 abbd
000001d0: 7339 95bd e60c 8abd 1835 c63d ee4a 273e
000001e0: f6ce 3cbd 917b 25be 488c f4bc c13c 0d3e
000001f0: 4ade c93d dfae 3c3d 3b3b 41be 4dad 3f3e
00000200: 64c9 243d 8924 833c ddaa ac3d d1dc 173b
00000210: cca0 273e 5c58 0dbd c7e1 fabd f29a 3b3e
00000220: 74e1 11be ec6a 283e 285f c0bd 61c7 093e
00000230: c120 593d b7d1 2c3e 81b7 473e 809e 25bd
00000240: 9011 0fbe 057a b23d 86d6 8f3d 3a25 023e
00000250: bc7e 403e b56e 6cbd 1ade a0bd 2ae0 1cbe
00000260: 2496 bebb bb76 97bd 010b 06be cb39 223d
00000270: ddf7 313d a48a 08bc 54ac 0abe 0f1c 173d
00000280: d49e 4dbd 8598 bb3d 5a5d de3d 53b3 edbd
00000290: e9fe 22bd a9f9 703b 77ca 353d 22d4 3a3e
000002a0: 8632 28be 63ea 38be b02f 013e f001 5b3c
000002b0: ef3e ab3d 91e5 2a3e a17e 2d3e 7f18 1abe
000002c0: bb6e 3c3e 496a a23c 5632 9a3d b54c 2abe
000002d0: 11fb bebd 17b9 103b bca4 253b 9d8c fd3d
000002e0: 4496 eabd a2a9 ff3d 01d0 313e eacb 16bd
000002f0: 294e 43bd 1da8 cabc a99a 30be 1fa8 26bc
00000300: 73bf f4bc 96f3 083e bba9 2a3e 1cc6 503e
00000310: 26f4 cd3d 60fa 74bd 1774 1bbd e95a 993b
00000320: 1cca f9bd fba1 48be 2442 43bb ecd1 df3c
00000330: 1827 423c 070f 263b b15b 373d 3818 03bd
00000340: 01ec 4d3d bd78 23bd b4e4 553e e42c 163e
00000350: 0c71 1a3e eef9 1d3d 72e3 4cbd 8c0d 3fbd
00000360: c28e ca3d 4080 3dbe dd23 60bd f610 d8bd
00000370: e2c8 4c3c 6a23 b13d 4bdc 2dbe b696 c03c
00000380: 3d02 4fbe f4db bf3d 3086 f0bd 9e92 d93d
00000390: 8b76 eabd 6977 2bbc 6183 2cbe 2b33 573e
000003a0: 8625 0ebe bdeb e03d ac21 0c3e acc1 bc3d
000003b0: 050b 213e bfc1 313e a0c5 a0bd c3dc 413e
000003c0: 9077 163e d2f5 e53d 5c51 0dbd 8d36 d53c
000003d0: b917 b33d 764b 513e fa4f cc3d 4765 e5bc
000003e0: 87bc 443d 874b 38bd 842f ccbd 7215 413e
000003f0: 0d70 b73d ed10 4b3d 5551 cf3d 8e72 1dbe
0.17966437 0.03952811 -0.17737792 0.07085835 -0.03189105 -0.028310815 -0.025281968 -0.16914335
0.14790781 0.056744903 -0.1988214 -0.19025864 -0.045365606 -0.19916214 0.039263822 0.20573734
0.08963262 -0.027901549 0.106476724 -0.008324 0.20508653 -0.16723475 -0.03462829 -0.11672771
-0.016178517 0.11211118 -0.18148561 0.12022965 -0.116243094 -0.03281268 -0.030337872 0.11522051
0.007962751 -0.12321693 0.08762679 0.097211026 0.19353805 0.035423122 -0.046093233 -0.07728291
-0.00823367 0.07192673 0.09097015 0.019019406 -0.18467556 -0.049250666 0.027990503 0.09377285
-0.14797857 -0.013416612 0.21145438 0.10116003 -0.11072431 0.12110827 -0.032416638 0.037316952
0.11634645 -0.058384296 -0.14120798 0.12782288 0.05590658 0.06744793 -0.16623339 -0.17721558
-0.19568597 -0.14937252 0.19204392 -0.08697257 -0.014002404 0.0044458513 -0.08279402 -0.10035145
-0.16872533 0.048522048 0.02348407 -0.002589588 0.040469963 0.188439 0.16421267 0.14077766
-0.073023014 0.15803769 0.1683372 0.064048104 -0.09112609 0.07740081 0.12406494 -0.11781321
0.1975095 0.19675465 -0.14584222 -0.0052467743 -0.0104086455 -0.033147987 0.030125873 -0.08458669
0.13906884 0.13866982 -0.15852143 -0.110212766 -0.09709513 -0.14920826 -0.06716474 -0.18777998
0.16245538 0.07193029 0.015012991 0.07949942 -0.02954792 0.026326533 -0.088952005 0.1418157
0.11726877 -0.10595773 -0.051703088 -0.083656974 -0.07286348 -0.067407414 0.096780956 0.16337177
-0.04609581 -0.16160418 -0.029852048 0.13792707 0.098568514 0.046065208 -0.18870251 0.18718453
0.040231124 0.016008632 0.08431027 0.0023172388 0.16369933 -0.034508094 -0.12250095 0.18320826
-0.1424616 0.16447037 -0.093931496 0.13454963 0.053009752 0.16876875 0.19503595 -0.04043436
-0.13971543 0.0871468 0.07023339 0.12709513 0.18798345 -0.057722766 -0.078548625 -0.15319887
-0.005816238 -0.07395693 -0.13090135 0.039605897 0.04344927 -0.008333836 -0.135423 0.036891993
-0.0502003 0.0915995 0.10857649 -0.11606469 -0.039793883 0.0036769903 0.04438254 0.18244985
-0.16425523 -0.18058161 0.12615848 0.013367161 0.08361613 0.16689135 0.16942836 -0.15048407
0.18401615 0.019826071 0.07529132 -0.16630824 -0.09325231 0.0022082978 0.0025275191 0.123803355
-0.11454442 0.12483527 0.17364503 -0.03681556 -0.04768196 -0.024738366 -0.17246498 -0.010171919
-0.029876446 0.1337417 0.1666631 0.20388073 0.10056333 -0.05980909 -0.03795251 0.004680027
-0.121967524 -0.1959304 -0.0029794062 0.027321778 0.011850141 0.0025338547 0.044765178 -0.03200552
0.0502739 -0.039910067 0.20888025 0.14665562 0.15082186 0.03856843 -0.050021596 -0.04664378
0.0989051 -0.18505955 -0.054721702 -0.1055011 0.012499066 0.08649333 -0.16978566 0.023509365
-0.20215698 0.093681246 -0.11744344 0.10623668 -0.114483915 -0.010465481 -0.16846992 0.21015613
-0.13881502 0.109824635 0.1368472 0.092166275 0.1572686 0.17359065 -0.07850194 0.1893187
0.14694047 0.11228527 -0.03450142 0.026026988 0.08744759 0.20438942 0.09976192 -0.028002394
0.048031356 -0.044993903 -0.099700004 0.18855837 0.08956919 0.04957669 0.10122935 -0.1537573

conv1.0.bias f4 [16]
00000000: 7f9e 883c b74c edbd 6112 763d 255f 7ebd
00000010: 412c 49bd 9d99 ee3c 484a 30be 62ef 81bd
00000020: 005e a4bc c548 3abe 0bc6 d9bd 776a 283d
00000030: 5db5 d1bd 72e0 343a a3e1 0b3e 5802 83bd
0.01667714 -0.11586898 0.06007612 -0.062102456 -0.04911447 0.029125983 -0.17215836 -0.06344487
-0.020064354 -0.18191822 -0.10633477 0.041117158 -0.102396704 0.00068999 0.13660292 -0.063969314

conv2.0.weight f4 [32, 16, 5, 5]
00000000: c4f7 21bd a5e6 bdbc 94f1 9d3b 1036 a63b
00000010: 8483 93bc a498 69bd bce6 45bd e888 f03c
00000020: 041d a5bb 939b 56bb 4590 2fbd 3134 be3c
00000030: 3eda 9c3c 1208 bcbc 61e7 aebc 301e 75bb
00000040: abdb 1ebd 2e50 dfba bd2f 7a3b 00d0 1a3d
00000050: 0b9d b0bc 24c5 0e3c 0fc7 2f3d 89d6 b7bc
00000060: 0b57 c3bc 276f 063b ef5a b2bb d228 3ebc
00000070: 5af3 53bd eba3 b33c 99a2 743c 96fb 65bd
00000080: fc85 9eba a717 1ebd 0f9e 31bd a0f9 d9bb
00000090: 3753 1fbd 5c06 9ab9 ea1e 22bc 5c12 37bd
000000a0: 4dc6 ac3c 3874 f13b e887 453d cbe5 323d
000000b0: 9d3e 4c3d bf40 d13c 1eec bd3c 30cf d9bc
000000c0: b7b2 643d c4ed 18bd bd4d e2bb a638 68bb
000000d0: be68 c9bc 4b5c 5abd 4815 253d 9742 163c
000000e0: 1b4a 8cbc 35cb a7bc 7cdd 613c 836b 23bd
000000f0: a3a4 103d f65a f23b b84b 033d d09c b13b
00000100: 2206 46bd 7065 33bc f69b 01bc 3d9e c13c
00000110: c081 163c 733f 083d 60fc 8b3c b7fa 3cbd
00000120: 5c3c b7bc 010e 303d 3662 48bd 0e83 2abd
00000130: 6690 373c 1d87 b93c bceb c8bc 8912 073d
00000140: b3cf 20bd 1492 e63c 00f6 70bc 4cb6 1f3d
00000150: 3125 86bc 389d 12bd de77 a7bb b89c a3bc
00000160: f9d6 033d 4878 3a3c 17c4 313d a0b4 f3bc
00000170: b431 19bd 6179 a93c 859f a13c 9240 2a3d
00000180: ab9c 53b9 25c4 153d 31f5 fa3c a387 9b3c
00000190: 2b65 ae3c b543 063d 61b3 713c bd26 e33b
000001a0: 9c5c 0fbd b0e9 7abb 64fb dfbc 8dc2 53bd
000001b0: 1725 7d3b 1194 38bd ca7f 79bb 7c31 6dbc
000001c0: a067 4fbd 8fbd 343d 357c cdbc 0977 3ebd
000001d0: e924 3bbc ea77 713c 2369 3abc a762 023d
000001e0: 799d a3bc fa6d 203c e782 0ebd 5462 10bd
000001f0: 5692 ec3c 5c2b 41bd e0fb 0d3c 288c cc3c
00000200: 748a 0dbd 2917 1bbd bf32 2fbd c21c a8bb
00000210: c660 303c c615 843a fd49 573c 3f1d 23bd
00000220: 60bc ac3c 354c 03bd 9f2b babc 01cc e43c
00000230: 14b0 a43c 1d06 df3c 39a5 72bc 2bbb fabc
00000240: 6b4e 4d3c 5639 d83c e4bb e33c 5de0 dabc
00000250: 90c4 7d3d c348 81bc 9490 bf3c a8bd d6bc
00000260: bc32 d9bc 8094 85b9 3cf3 39bb 87f4 0f3c
00000270: a2e1 fabb 03fc 50bd 18a0 c93c 9359 39bd
00000280: d14d 003c 1078 36bd 2f8d 053d b2b5 f93c
00000290: 8220 15bc 37bc fc3c 1310 193d 2a64 2c3d
000002a0: 6811 0cbd ae26 1c3d c6f7 d8bc f6d9 a33b
000002b0: f481 413d ca90 20bd 5cad 6abb 6ba1 6b3b
000002c0: 514a de3a 86fe 22bc 02a5 243d bf13 703c
000002d0: 199b b43b 3c1c 13bd cb5e 9bbb a214 0b3d
000002e0: 4796 223d c436 fe38 9c16 35bc 2a7c 813c
000002f0: 42b1 c83b 6441 d2bc 035c d6bc 4f3f 433d
00000300: 0b33 263d 5adb a5bb c586 93bc 443f b3bc
00000310: 736f 33bc 72f6 1b3d 9e84 99bc 28e7 46bc
00000320: d75c 39bd fd77 ef3c 38f4 02bd 8241 e139
00000330: 97df 41bd e2b5 92bb 51d3 663c ae52 2fbc
00000340: 0f2e 26bb 0150 4f3b bf3a 043c 0f50 c13b
00000350: 0cfb 033d 374f 0d3d ec0c 1d3d 6e50 833b
00000360: 309e bbbb 947c d5ba 12ad 183d 3058 8c3c
00000370: 8631 d4bb 2c4a 4b3d 342e 2f3c 5080 d93c
00000380: 3e54 0a3d 5f90 3bbd 3788 f3ba fa89 853c
00000390: 13af cfbb 15da 19bc aaa8 68bc 310a 2fbd
000003a0: 3057 233d 7966 9d3c e93b 283d 822b 293d
000003b0: 5ac2 35bd 0a73 48bc d2a1 443d 8a10 013d
000003c0: 9cf6 2ebc 0d5a 273d 5ff0 4ebc 85ba 0f3d
000003d0: 41b0 03bc adfc 313d 0083 c7bc a28d 553d
000003e0: ee0d 1c3d bb8d 533d 0872 0d3d 03c7 0d3c
000003f0: 2ae2 a2bc e585 69bb 1026 38bd d561 033d
-0.03954293 -0.023181269 0.004820058 0.0050723627 -0.018007047 -0.057030335 -0.04831575 0.029362157
-0.0050388593 -0.0032746538 -0.042862196 0.023218246 0.019147035 -0.022953067 -0.021350564 -0.0037402026
-0.03878371 -0.0017037445 0.0038175427 0.03779602 -0.021559259 0.008713994 0.042914446 -0.022441166
-0.023845216 0.002051303 -0.005442969 -0.011606412 -0.05174575 0.021928748 0.014931344 -0.056148134
-0.0012094374 -0.038596775 -0.043363627 -0.006652072 -0.03889772 -0.00029377907 -0.009895066 -0.044695243
0.02109065 0.0073685907 0.048225313 0.04367618 0.0498644 0.025543569 0.023183879 -0.026588053
0.0558345 -0.037336126 -0.00690624 -0.0035434156 -0.024586078 -0.053310674 0.0403035 0.00917115
-0.01712518 -0.020482639 0.013785716 -0.039897453 0.03531326 0.0073960973 0.032054633 0.005420305
-0.048345692 -0.010949478 -0.007910719 0.023635024 0.009186208 0.033263635 0.017088115 -0.046137538
-0.022367649 0.042982105 -0.048921786 -0.04162889 0.011203861 0.022647435 -0.02452647 0.03297666
-0.039260577 0.028145827 -0.0147070885 0.03899221 -0.016375156 -0.035794467 -0.005110725 -0.01997219
0.032187436 0.011381216 0.043399896 -0.029749215 -0.037400916 0.02068776 0.019729385 0.041565485
-0.00020180891 0.03656401 0.030634494 0.018985575 0.021288475 0.032779414 0.01475224 0.006932108
-0.03500043 -0.0038286261 -0.027341552 -0.05169921 0.0038626844 -0.045063082 -0.0038070553 -0.01447713
-0.050635934 0.04412609 -0.02508364 -0.04650024 -0.011422374 0.014738062 -0.011377606 0.031832363
-0.01997255 0.009791845 -0.034792807 -0.035250023 0.028878372 -0.04716049 0.008666009 0.024969175
-0.034555867 -0.037863884 -0.042773005 -0.0051303813 0.01076526 0.001007729 0.013140199 -0.039822813
0.021085918 -0.0320551 -0.022725878 0.027929308 0.020103492 0.027224595 -0.0148099 -0.030606827
0.012530903 0.026394527 0.027799554 -0.026718313 0.061955035 -0.015781766 0.02338437 -0.026213482
-0.02651345 -0.00025478378 -0.0028373739 0.008786327 -0.007656292 -0.051021587 0.024612471 -0.04525144
0.007831053 -0.044548094 0.032605346 0.030482147 -0.009101989 0.030851467 0.037368845 0.04208771
-0.034196287 0.038122825 -0.026485335 0.005000348 0.047243074 -0.03920058 -0.0035808897 0.0035954367
0.0016959404 -0.009948378 0.040196426 0.014653145 0.005511653 -0.0359156 -0.004741525 0.033955224
0.039694097 0.00012121865 -0.011052754 0.015806276 0.0061246464 -0.025665946 -0.026166921 0.047667798
0.040576022 -0.005061549 -0.018008599 -0.021880753 -0.0109518645 0.038076825 -0.018739995 -0.012140073
-0.045254555 0.02923202 -0.031971186 0.0004296415 -0.047332373 -0.0044772485 0.014088468 -0.010700865
-0.0025357043 0.003163338 0.008070647 0.0058994363 0.03222184 0.034499373 0.0383424 0.0040073907
-0.0057256445 -0.0016287738 0.037274428 0.017131895 -0.00647563 0.049631283 0.010692168 0.026550442
0.033771746 -0.04579198 -0.0018580024 0.016301144 -0.006338009 -0.009390374 -0.014200369 -0.04273433
0.03987807 0.019213902 0.04107276 0.041301258 -0.0443748 -0.012234459 0.048005886 0.031509914
-0.010678913 0.040857363 -0.012630551 0.03508999 -0.008037628 0.04345386 -0.024354458 0.052137025
0.038099222 0.051648837 0.034532577 0.008653405 -0.019883234 -0.0035632786 -0.044958174 0.03207572

conv2.0.bias f4 [32]
00000000: 5220 b83c 32a7 ddbb 64fc 0f3d 04e6 7cbd
00000010: 381c 2c3d 62e2 c43c eb6d b8bc 1f97 a63c
00000020: 4e70 d2bc ba52 30bd b4fc 0c3d 1620 193d
00000030: c880 043d 29ce b83c 6900 3dbd 1843 cbba
00000040: fcef a93c 9e5c 28bc 8f79 153d 91a9 1cbd
00000050: d762 1c3c a6b7 8fbb b687 be3b fae1 5dbc
00000060: 18dc 383d 60c1 103d 0a01 dfbc e937 20bc
00000070: c480 17bd c3d4 03bd 96a0 c33b 09ad 3dbd
0.022476349 -0.006764316 0.035152808 -0.061742797 0.0420191 0.024033729 -0.02251335 0.020335732
-0.025688317 -0.043047644 0.034420684 0.037384115 0.032349378 0.022559242 -0.04614297 -0.0015507666
0.020744316 -0.010275988 0.03649288 -0.03824765 0.00954505 -0.0043859063 0.005814518 -0.013542647
0.045131773 0.035340667 -0.027222175 -0.009778955 -0.036988035 -0.032185327 0.005970071 -0.046307597

conv3.0.weight f4 [64, 32, 5, 5]
00000000: 1239 03bd 7358 a2bc 5473 ebbc b53d 283d
00000010: 5668 433c 0291 883c abaf 8a3c 0f66 d0bc
00000020: dedb 8e3b 9e2a df3b 7ba0 96bc 6240 aabc
00000030: c865 23bc 3c4a 243c 61e6 0c3d 3a80 ae3c
00000040: ba73 293a ab30 093c 4da4 823c 402c d7bc
00000050: 4969 c3bc 58dc a43c 2856 b73c fa04 7f3b
00000060: 553d 813c f6a5 f13c 0aea bf3c b0c8 e8bc
00000070: 49fb 883c d5ca bb39 7366 793c 4e89 d93c
00000080: dace 16bd f763 ed3c bbf2 81bb e7ec f6bc
00000090: 1a82 74bc c5e1 b73b fdfa 21bc b90e cf3c
000000a0: 42fd f7bc 2456 9dbc b284 e9bc d1ad e73c
000000b0: 8998 293c e2f6 69bc 4927 993b d707 0c3d
000000c0: 84d8 92bc 5281 39bc 9210 38bb 6d24 943b
000000d0: 7e6a 00bd 037b 5bbb 0fe7 0a3c 03ba f03c
000000e0: c8b0 16bc e060 973c 3b07 a4bc 1947 f43c
000000f0: ecb7 fd3c e77a 893c 7700 af3c 4e24 ab3c
00000100: 08ce 9ebb 52b0 d53c e859 123b 4c04 cbbc
00000110: 57bb 8bbc 639b e0bc 3716 563c eeb6 28bb
00000120: 8a70 d6bc c5c7 2c3c 8471 0e3d 8123 c7bc
00000130: d105 1ebb 301c 8b3c 367d 663c 9656 8ebc
00000140: d969 d73a ce69 133c 50fa ba3c 2ab2 203d
00000150: 26bb a1bc e48d 753c 42a9 26bd 4b5d efbc
00000160: c8cd c83b 2434 f5ba 44ce 7a3c 5d2d f4bc
00000170: 0317 313c e612 babc 97c4 dc3b ee35 0fbd
00000180: 842b dc3c 7ce1 553b 56bc afbc d2be 213d
00000190: c2a1 2eba 6f9a a5bb 5063 c53b 6a95 c83c
000001a0: 8918 0bbd 63a8 a03c 5fa1 683c 9009 223c
000001b0: b841 273b 85a0 aabc 3962 883b d03c 283c
000001c0: ba06 583c d7f2 e3bc cd89 8d3b b293 03bc
000001d0: 0447 8abc 336c d63c 3476 bb3c 42c2 20bb
000001e0: 91d5 03bd 9068 20bc bafb 08bc ac7e a8bc
000001f0: 6e95 983b a52c d7bc fd3a 72bc a9b8 f5bb
00000200: 238c 5f3c d729 033d b4ef 4f3c ce66 fdbc
00000210: 2ad0 dcbc c1f1 9e3c a9ca 9c3c 3538 d0bc
00000220: 66b2 e1bc 6f97 053d b29d b2bc 5d33 63bc
00000230: f11a 69bb 1da1 e93c 2246 1b3b d20f bfbc
00000240: c554 fa3c 5280 a93c c572 ae3c c440 173d
00000250: 5eac 903c dc6e 76bc 4eaa 913c 796e 8e3b
00000260: 4faa 8f3b aa0e ebbc d375 0ebb 0ffb bebc
00000270: 3171 163b 1da5 cfbb 476e 773a 90df ef3c
00000280: 1155 f33c f7cd 76bc c68b 42bc b718 34bc
00000290: 780b e2bc 3a40 27bc 1cbe b03c e4eb 4fba
000002a0: 16b6 48bb b593 833c 1b47 a03c 429a 4c3c
000002b0: fe79 a0bb c242 bb3c 54e1 ce3c 6f7c 2239
000002c0: 15cd 873b 5a4e 55ba cd5f c03b 4893 ac3c
000002d0: cc3d 653c 7fed e2bc c5f1 2dbc eb4c 32bc
000002e0: 7d71 cc3a 0142 69bc a6cf acbc 0931 07bd
000002f0: 8148 b43c cf07 0f3d d600 80bc 376f ce3c
00000300: 865d 6d3c f75b 193c bc15 08bc f521 8f3c
00000310: 85cf c53a 4108 c33c 77ff ec3c 7767 ad3c
00000320: bd03 08bd 9b1d 25bc 8b80 58bc 06d8 fdbc
00000330: 31cb d93c 98bc 89bc 0cd4 8c3c a2ea 20bc
00000340: 3327 2e3c ab0d 073d e07c 63bc d471 f83c
00000350: 6cb6 dabc 3557 3bbc 2cd5 fabb 3633 16bc
00000360: 3f2d d43b 3fc9 a0bb e8f9 c9bc ace1 7b3b
00000370: f6fd 453c ab7f 93bc 8fee c9ba 0f1c 0c3d
00000380: ab16 003d 03cb 123c 1df4 3dbc 8905 f1bc
00000390: b301 7f3c 4173 1ab9 359b a6bc 2599 df3c
000003a0: 6aba d03c 8ac5 b5bc 267b 88bc 6d4d 013c
000003b0: c5f5 c83a ada7 92bc 0f55 34bc 28db 083d
000003c0: 0c20 703c 0de9 a9bc 3942 cebb b537 073d
000003d0: ace5 ccbc 9d91 8abb d0cb e2bb ea91 b1bc
000003e0: 4864 5a3c 7a36 0e3d 7e63 f7bc 0ddf fc3b
000003f0: 95c2 d4bc 78b2 0dbd 5fcb e43c 2ebc bb3c
-0.03203685 -0.019817566 -0.028741516 0.041074473 0.011926731 0.016670708 0.016929468 -0.02543929
0.0043597063 0.0068105003 -0.01838707 -0.020782653 -0.009972997 0.0100274645 0.034399394 0.021301378
0.0006464083 0.00837342 0.015947485 -0.026266217 -0.023853915 0.0201246 0.02237995 0.0038912878
0.015776316 0.029498082 0.023427028 -0.028416008 0.016721385 0.0003581854 0.01522218 0.02655473
-0.036818363 0.028978331 -0.0039657033 -0.03014226 -0.014923597 0.0056116306 -0.0098865 0.025275575
-0.03027213 -0.019206114 -0.028505657 0.028281124 0.010351309 -0.014280053 0.0046738726 0.034187164
-0.017925508 -0.011322336 -0.0028086049 0.004520944 -0.03135156 -0.0033490069 0.00847794 0.029385572
-0.009197421 0.01847881 -0.020022979 0.029819058 0.03097149 0.016782237 0.021362526 0.020891335
-0.004846338 0.026085053 0.002233142 -0.024782322 -0.017057104 -0.027417844 0.01306682 -0.00257438
-0.02617671 0.010545676 0.034776226 -0.024308922 -0.0024112354 0.016981214 0.014067939 -0.017375272
0.0016434743 0.008997394 0.022824436 0.03923241 -0.01974256 0.014987443 -0.04068876 -0.02921929
0.0061280467 -0.0018707556 0.015307967 -0.029806787 0.010808709 -0.02271409 0.0067373025 -0.03496354
0.026876219 0.003263562 -0.02145211 0.03948862 -0.0006661677 -0.0050538103 0.006023802 0.024485309
-0.033958945 0.019611543 0.01419863 0.009889975 0.002552135 -0.020828495 0.0041620997 0.010268405
0.0131851975 -0.027825756 0.0043194056 -0.008030819 -0.016879566 0.02617464 0.022883512 -0.002452985
-0.032186095 -0.009790555 -0.008360798 -0.020568214 0.0046564853 -0.026266405 -0.014784572 -0.00749882
0.013644251 0.032022323 0.012691427 -0.03093281 -0.02695473 0.019402387 0.019139605 -0.025417427
-0.027550887 0.03261512 -0.02180371 -0.013867226 -0.0035569037 0.028519208 0.0023692925 -0.023322973
0.030558 0.02069107 0.02129496 0.036927 0.017660316 -0.015041079 0.017781403 0.0043466655
0.004384316 -0.028693516 -0.002173771 -0.023313073 0.002295565 -0.0063368217 0.0009438735 0.029281408
0.029703649 -0.015063754 -0.011874145 -0.010992221 -0.02759336 -0.010208184 0.021575026 -0.0007931574
-0.003062611 0.016061643 0.019565156 0.01248795 -0.004897355 0.022858981 0.02525393 0.00015495879
0.0041443207 -0.00081369805 0.0058707953 0.021066323 0.013991784 -0.027701138 -0.010616724 -0.0108825965
0.0015597787 -0.014236928 -0.021095108 -0.033005748 0.022007229 0.034919556 -0.015625399 0.025199516
0.01448763 0.009360305 -0.008305963 0.017472247 0.0015091753 0.023807647 0.028930409 0.0211675
-0.03320669 -0.010077859 -0.013214241 -0.030986797 0.026586147 -0.016813561 0.017190956 -0.009821566
0.010629463 0.03297202 -0.013884753 0.030327715 -0.026698314 -0.011434366 -0.0076548066 -0.009167483
0.0064751203 -0.004906803 -0.024655297 0.0038434071 0.012084475 -0.018005213 -0.0015406179 0.034206446
0.031271618 0.008959535 -0.011593846 -0.029421585 0.01556437 -0.0001472952 -0.02033768 0.027294705
0.025479514 -0.02218892 -0.016660284 0.007891995 0.0015332034 -0.01790222 -0.011006608 0.03341213
0.014656078 -0.02074101 -0.0062945154 0.03301211 -0.02501186 -0.0042287842 -0.006921269 -0.021676023
0.013329573 0.03471992 -0.030198809 0.0077170194 -0.02597169 -0.03459403 0.027929006 0.02291688

conv3.0.bias f4 [64]
00000000: b37a 57bb 7ab8 013d 49ce c839 ac28 613c
00000010: 5d10 07bd e9a2 a3bb f779 0fbd b2ec d3bb
00000020: 6fc4 ecbc 3a0c 2d3c 5649 08bd c8b4 92bc
00000030: 6482 04bb 5ad2 1a3c ff8d 653c 3083 403c
00000040: 969b 97bc 93ba fe3c 9206 213c 499f 21bb
00000050: 84f1 83ba 3fa1 67bb 1a77 07bd df51 f6b9
00000060: 7839 f93a a5c4 eabb 8aeb 63bc 68e3 813c
00000070: 1f67 253d 050b f3bc 45dc a43c 3d21 f6bc
00000080: 52b9 153d 4abf a4bc 807b 3fbc 0d8d fe3c
00000090: fdd6 0bbc 3d36 033d b6d9 913b 3837 8c3c
000000a0: 2671 0bbd 54e0 33ba 4099 5abc 3c24 61bb
000000b0: 33d9 79bc 6b27 98bc aad6 663c 151c 6fbb
000000c0: eec0 cc3b 06a5 eebb 4075 6f3c 8d9c dd3c
000000d0: ef39 65bc 76aa 7bbb 5840 043c 391b 433c
000000e0: f857 4a3c e061 473c 07b4 e33c 0506 df3c
000000f0: 05aa 33bc f749 403c 01e3 2cbd 3d2c bcbb
-0.003287953 0.03167007 0.00038300667 0.013742607 -0.03297459 -0.0049937856 -0.035028424 -0.0064674253
-0.02890226 0.010561997 -0.033273064 -0.017908469 -0.002021932 0.009449566 0.014010905 0.011750028
-0.018506806 0.031094825 0.009828227 -0.0024661592 -0.0010066484 -0.0035343913 -0.03307257 -0.00046981775
0.0019014319 -0.007164555 -0.013911137 0.015855506 0.040381547 -0.02966834 0.020124564 -0.030045146
0.03655369 -0.020110745 -0.01168716 0.031073118 -0.008535144 0.032034148 0.004451002 0.017116174
-0.034043454 -0.00068617356 -0.013342202 -0.0034353873 -0.015249538 -0.018573483 0.014089266 -0.0036485244
0.006248585 -0.007282856 0.014615357 0.027052188 -0.013990863 -0.0038401163 0.008071981 0.011908346
0.012350075 0.012169331 0.027795805 0.02722455 -0.010965829 0.011736385 -0.042208675 -0.0057425783

conv4.0.weight f4 [128, 64, 3, 3]
00000000: 6e1a c9bc bbfb 323c 7dcc 7a3c e9ac 75bc
00000010: 7bcc 20bc f38d 09bc eb95 033d fbac 1e3d
00000020: e60f cd3c 43ce cfbb 5237 143b ec5f 15bc
00000030: 34d4 7dbc 3c1b 023d c9a3 01bd 7887 203d
00000040: 5f49 c33c b0ab d5bc 1094 943c 2da9 653c
00000050: f933 e7bc 0440 f13a 8996 e6bc 55d9 36bd
00000060: 83ce fd3c 5c8d 223c 139d 8dbb 2d15 203d
00000070: 58a0 0e3c 8b0f 0f3b 330f 67bc 4a54 f53c
00000080: 1607 29bd 3f44 b83b 8dd0 263d 8259 e23c
00000090: 147a 1ebd 6dd4 88bc 6ed5 e7bb abdd 2e3c
000000a0: 9a31 df3c 4c09 fdbb 5a13 bebb 3670 f43c
000000b0: 1bf0 b63c d046 afbc 7628 2f3b ba73 fdbc
000000c0: 77b8 9fbb 9cb4 5d3c b25c 1b3d 3ede 203d
000000d0: 80f3 1d3d 84e8 5abc 4b3b c3bc bfd7 9fbc
000000e0: 0902 babc f611 cdbc 9514 c1bc d264 15bd
000000f0: 5ec3 543c e0ba ae3c 67eb 53ba 8e00 283d
00000100: dfe0 babc 58e1 1c3d 0715 ba3c 7900 073c
00000110: 56cb 07bc 9de5 2cbd bdda a8bc 816b 903b
00000120: d85e 2d3b c636 eebc 4d59 703c 4f07 21bd
00000130: 9fde a3bb f88a c6bc 485e c23c f05a 333c
00000140: b323 c3bc ca20 8f3c 302e 49bc 22c3 163d
00000150: 810d 14bd d1c7 de3c fab1 ba3c 5197 133b
00000160: 4ea1 203c 48bb a1bc aab1 d53b ee46 cebc
00000170: 86b8 143d 2d2b e83b 779e 003d 4d2f aa3c
00000180: 40f8 ac3b 65eb 973b 99b1 25bc a827 f5bc
00000190: 4148 393c 1616 cfba 261e 0fbd 41b1 6abc
000001a0: 58e7 e6bc 1a1c fb3c 850c 483c 243c 3dbc
000001b0: 6aa0 91bc a596 b93c 3425 59bc 85db f9bb
000001c0: 36ed 1fbd edbc ca3b 595f d53c 8e84 7b3b
000001d0: 2970 0cbd 23f9 d8bc e5bf 12bc 966e c9bc
000001e0: 2bdc b5bc 97bf 9bbc 57aa 32bc 0e74 993c
000001f0: 2d2e 7d3c e034 ebbc c4e7 edbc 8c8e 9bbc
00000200: 1c76 a6bc bccf f73c fe03 06bd 51e0 8f3c
00000210: 808f a2bc 8146 28bd e674 09bc 05a9 1fbb
00000220: bea9 3a3d 8368 963c f037 323d 8a27 fabb
00000230: 4732 98bc 3e3c eebc 9f53 ac3c 6af2 0d3d
00000240: 0ab8 ab37 7e16 61bc 61c2 ec3b facd 723b
00000250: 5145 03bc b9af 11bd 5f88 0e3c 1098 53bb
00000260: d3ca 57bc 732f d3bc d4a4 85bc dd6b fabb
00000270: 19b3 13bd aa26 9dbc a8a4 d4bc 70d7 8fbc
00000280: eeca 0c3d d1f3 2dbd 66cd 39bc 51e6 8ebc
00000290: 78b6 1aba 7e3a f7bc 84f8 dabc 5d00 d33c
000002a0: 3a9a 543c c3f0 64bc 2f6c dcbb a9b6 863c
000002b0: 5ac1 d43a 2758 1e3d 448c 963c 4dd5 083d
000002c0: 8a47 16bd 1af6 8f3c fd23 013d 0183 03bd
000002d0: e02b 85bc 374a 43bc 33c1 c9bb bd3f b23c
000002e0: 2bf4 93ba d050 083d ba0a f0bc 8652 d1bc
000002f0: 57d1 5bbb f735 03bc 0774 acbc 884e dbbc
00000300: 11d8 26bd 5a78 b73c b8fa 273d 9837 a63c
00000310: 5233 6cbc 5cd0 2739 7b70 233d a0d3 da3b
00000320: 615a b43c 09cd 0dbd 309a 84bb a25e 48bb
00000330: 8154 4fbc 5b71 3dbb 0db5 093d 8ec5 083b
00000340: ca3d 013c 16ae b93c bc0d 183d 1fb9 84bc
00000350: 1590 9dbc 3633 adbb 27df 093d 8da7 0f3c
00000360: 2dc8 b9bc 6239 433c 2601 ee3c c569 0fbd
00000370: 0094 5c3b e768 f93c 3dae 89bc d8dc a73c
00000380: 642b 08bd 991b 9dbc b96f 0cbc 45c8 c73c
00000390: 1163 41bc aacb 003d 630d 1cbb 049f 33bd
000003a0: 1a6a d9bc 0ed9 d7bc c5dc d13c 12a5 543d
000003b0: 24e8 4bbc 04a2 fb3b 2fd3 02bc 95e3 4abc
000003c0: 15f0 6dbc ae7d 003d e5a3 d83c 5930 e23a
000003d0: 0e2c 35bb ff21 9f3c bd9b c9bb 4b0b 0cbc
000003e0: 79ab 0abd 7320 a5bb 81a0 66bc 8d66 14bc
000003f0: 1e08 97bc c571 a23c 60e6 ef3b 8f96 123d
-0.024548735 0.010924275 0.015307543 -0.014994838 -0.009814377 -0.00839566 0.032125395 0.038739186
0.025031995 -0.006341727 0.0022615981 -0.009117108 -0.015492488 0.031764254 -0.03165034 0.039191693
0.023838697 -0.026082844 0.018137008 0.014017385 -0.028223025 0.0018405919 -0.028147953 -0.044640858
0.030982262 0.009921398 -0.004321703 0.039082695 0.008705221 0.0021829333 -0.014102745 0.029947419
-0.041266523 0.00562337 0.040726233 0.027630571 -0.03869064 -0.016702855 -0.0070750033 0.010672967
0.027245332 -0.0077220555 -0.0058006467 0.029838663 0.022331288 -0.02139607 0.0026726997 -0.030938972
-0.004874285 0.01353183 0.037930198 0.039274447 0.038562298 -0.0133611 -0.023831984 -0.019512055
-0.022706049 -0.025032979 -0.023569385 -0.036473103 0.012986032 0.021329343 -0.0008084089 0.041016154
-0.022812305 0.038300842 0.022715105 0.008239859 -0.008288225 -0.042211164 -0.020612115 0.0044073467
0.0026454236 -0.029078852 0.014669728 -0.03931361 -0.0050009037 -0.024236187 0.023726597 0.010946974
-0.023820734 0.01747169 -0.012279078 0.036807187 -0.03614569 0.02719489 0.022789944 0.0022520612
0.009804083 -0.019742623 0.0065214233 -0.025180306 0.036308788 0.007085225 0.031401124 0.020774508
0.005278617 0.0046362155 -0.010113143 -0.029926136 0.011308731 -0.0015799429 -0.03494086 -0.014324487
-0.028186485 0.030653048 0.012210016 -0.011549983 -0.017776687 0.02265484 -0.013253499 -0.0076250457
-0.03904458 0.0061870725 0.026046442 0.003837857 -0.03428665 -0.026485985 -0.008956884 -0.024588864
-0.02219971 -0.019012256 -0.01090487 0.018732097 0.015452904 -0.028711736 -0.029041179 -0.01898887
-0.02031999 0.030250423 -0.03271865 0.017563017 -0.019843817 -0.041082863 -0.008389687 -0.0024362218
0.045572035 0.018360382 0.043510377 -0.007634108 -0.018578662 -0.02908146 0.021035967 0.034655012
2.0470488e-05 -0.013738273 0.00722532 0.003704904 -0.008012132 -0.035567973 0.008699506 -0.0032286681
-0.013170916 -0.025779461 -0.016313948 -0.007642253 -0.036059473 -0.019183476 -0.02595742 -0.017558783
0.034373216 -0.04246885 -0.011340475 -0.017443808 -0.0005901824 -0.030179258 -0.02672983 0.02575701
0.012976224 -0.013973418 -0.0067267637 0.016444521 0.001623194 0.038658287 0.01837743 0.033406544
-0.03668932 0.017573405 0.03152846 -0.032107357 -0.016256273 -0.01191955 -0.0061570643 0.021758908
-0.0011287978 0.033280194 -0.02930199 -0.025552046 -0.0033541524 -0.008008472 -0.02105142 -0.026770845
-0.0407334 0.022396255 0.04101059 0.020290181 -0.014416533 0.00016003981 0.03990219 0.0066780597
0.022015752 -0.034619365 -0.004046701 -0.0030573984 -0.012654425 -0.0028906676 0.03361993 0.0020869705
0.007888267 0.022666018 0.037122473 -0.016201554 -0.019233743 -0.005285646 0.03366008 0.008767975
-0.022678459 0.011915537 0.029053282 -0.03501298 0.003365755 0.03044553 -0.016806716 0.020491049
-0.033244506 -0.019178199 -0.008571559 0.024387488 -0.011803404 0.03144423 -0.002381169 -0.04385282
-0.026539851 -0.026348617 0.025617966 0.051915236 -0.012445483 0.007679226 -0.00798492 -0.012383361
-0.014522572 0.031369857 0.026445339 0.001725684 -0.0027644667 0.01942539 -0.0061525987 -0.008547614
-0.033854935 -0.0050392686 -0.014076353 -0.009057653 -0.018436488 0.01982964 0.007321164 0.035788115

conv4.0.bias f4 [128]
00000000: 4a15 35bc 2868 0c3d a0f8 1bbd bd66 17bd
00000010: c43d e8bb 966e f13c fc5e a6bc 1244 3d3d
00000020: d900 d13c df9e a3bc 11ec 9b3c d4df ff3c
00000030: e9c6 233d 72c4 d5ba 8b64 3a3d f5c5 2bbd
00000040: 067f 42bc 762a 103d 282b 263d c87a b4bc
00000050: 4cc1 f63c 1887 91bb 9cd2 333b e3ed 0dbd
00000060: 5d0a 0d3d 8219 cdbc c7fb 33bc 6102 193d
00000070: 5be7 00bd 909d c73c f128 5cbc 96af 87bc
00000080: f990 403d 8412 5fbc 533d bebc 4400 b4bc
00000090: ccd5 c43c 5c42 d83c 26f3 c0bc 9e38 eb3c
000000a0: 27ef c6bc 2c11 cabb 94e2 dbbc d56d 17bd
000000b0: b870 f2bc 61cd ba3c c78b 5d3c dcc2 73bc
000000c0: 27b0 a23a 5f88 91bb 76cc d63b baf4 0abd
000000d0: 7be9 113d 5faf 22bc 9f42 7cbc e2d1 3abd
000000e0: 5ddf 11bd db95 8ebc 3d25 1ebd 80ae 28bd
000000f0: 476f 04bd 4ef9 ebbb f9be 54bc 9e7d dd3b
00000100: a1a8 023d 13e8 2abc fd27 98bc ea30 d93b
00000110: 817f 06bb e10e 063d 7273 1a3d dc0a 0f3d
00000120: bd6d a53c 3146 833c dd1e 2c3c 4be3 9b3c
00000130: 61b8 acbc b0bd ce3c bc71 203d 3327 23bd
00000140: 5137 093d 15c6 57bb 101f 0dbd 9524 d0bc
00000150: 6a14 cebb f420 25bc 2567 8f3b 5e4e 47bb
00000160: c3da 203c ad88 373d dd3d 113d 938b 0a3c
00000170: ebd3 a23c ff6e bc3c 8c9c eb38 92b0 343c
00000180: 5ae8 e3bc ad70 14bd 8a07 033d 77f6 bd3c
00000190: e83d 1abd 11d1 ff3c 2ef2 a9bc fb15 9cbc
000001a0: 8649 03bd 0a09 1b3c 4bed a6bc 1dfd 363d
000001b0: d252 94bc 8f4f e9ba fd64 11bd b7d1 08bc
000001c0: e468 6839 6660 e0bc 3768 22bd 170c a6bc
000001d0: ce10 df3c b31e 043d dd19 babb 1988 81bc
000001e0: 8173 26bd c030 043c 3b1b 233d 7810 f5bb
000001f0: 17ce db3c c0c5 a33c 1fa5 163d 17f7 e7bc
-0.011052439 0.03427902 -0.038078904 -0.036963213 -0.007087441 0.029471677 -0.020308964 0.046207495
0.0255131 -0.019973217 0.019033464 0.03123466 0.039984617 -0.0016309156 0.04550604 -0.041936833
-0.011871105 0.035196744 0.0405685 -0.022031203 0.030121468 -0.0044411533 0.0027438765 -0.034650695
0.03443371 -0.025036577 -0.010985321 0.037355784 -0.031470638 0.024367124 -0.013437496 -0.016563218
0.047013257 -0.013615254 -0.023222601 -0.021972783 0.024027728 0.02639883 -0.023553442 0.02871352
-0.024283959 -0.006166598 -0.02684144 -0.03696998 -0.029594764 0.02280301 0.013522095 -0.014878001
0.0012412117 -0.0044413055 0.0065551354 -0.033924796 0.035623055 -0.009929507 -0.015396743 -0.045610316
-0.035613406 -0.017405441 -0.038609732 -0.04118204 -0.032332685 -0.0072013503 -0.012984985 0.0067593595
0.0318991 -0.010431307 -0.018573755 0.0066281455 -0.0020522776 0.032729033 0.037707753 0.034922466
0.020193929 0.01602468 0.010505405 0.01902928 -0.021084012 0.025236934 0.039170966 -0.039832305
0.03350002 -0.0032924463 -0.03445345 -0.025408069 -0.0062890546 -0.010078657 0.0043763095 -0.00304117
0.009817782 0.04480808 0.035459388 0.008456129 0.019876441 0.023002146 0.00011234832 0.011028426
-0.027820755 -0.03624027 0.03198961 0.023188813 -0.037656695 0.03122762 -0.020745363 -0.01905345
-0.03205254 0.009462604 -0.020376822 0.04467498 -0.018105898 -0.00178002 -0.0354967 -0.008350781
0.00022164319 -0.027389716 -0.03965017 -0.020269437 0.027229693 0.03225584 -0.0056793527 -0.015811967
-0.040637497 0.0080682635 0.03982089 -0.00747877 0.02683167 0.019991755 0.036778565 -0.028316064

linear.weight f4 [10, 3200]
00000000: 5c35 853c b4ed 7ebc 8157 df3a 6ca6 b5bb
00000010: 72a9 aebc df05 17bc 4dea 493c 1a6e 72bc
00000020: bda3 2cbc 5700 2e3b 4969 1e3c 7b18 783c
00000030: 946d ab3b d378 49bc 912c ad3b c30c a63b
00000040: 3e64 b0bc 4134 cdbb 30ef 0dbc 9f47 a5b8
00000050: 230b 923b a0dd b3bb 424f 823a 9b7a 7bbc
00000060: 37ca fcbb 5839 ab3b 811f 24bc f73a 96bc
00000070: 933e a4bc e9e8 bebb 3f7e a3bc 104c 99bc
00000080: 29f9 adbc d7c6 17bc 5d89 4dbb 9003 a53c
00000090: 1a9b ab3c e36e 833c 4fe3 cabb 6b5b 83bc
000000a0: e5b4 a03c e943 7dbc 9850 85bc 0751 fdba
000000b0: 5d3f 843c 3005 90bb f9cf 17bb 923c c43a
000000c0: 44a1 45bb 446e 753c 085e aebc 9515 5c3b
000000d0: 6f40 2ebb 28a8 eebb a78c 83bc 6f4f 593c
000000e0: 82d2 b1bc 7960 3c3b 5533 8a3b 853c 183a
000000f0: 3a0c 51bc c373 44bc 4279 193c a157 843b
00000100: 4f0b 903b 3303 4fbc 458b 83bb ba27 45bc
00000110: 210e 0abc b448 833c cf4f 5cbc d7b5 0fbc
00000120: 9d0b a0bb a423 86bc b6ec 3d38 acc9 c13a
00000130: e2c0 b3bb 35f0 eb3a 047e a6bc d7b2 90bc
00000140: 7257 a03c 2fb3 97bc ed4b e43a eb94 abbb
00000150: b03d c03b c32c 01bc 203e 463a b68e 3bbc
00000160: 1c8e 56bb 7429 d9bb 588e edba 4f51 38bb
00000170: e52c e73a ab91 dbbb bd34 233c 5253 14bc
00000180: 8460 4bbc 90b2 6d3c 871a 66bc d3bd 3fba
00000190: f478 2b3c 7c50 e7ba af99 8c3c 9d76 073b
000001a0: d794 35bc 7d98 853b 684e d2bc c00d 89bb
000001b0: bead 91bc 93e1 77bc 7775 1ebc ad11 763c
000001c0: 594c 263b 82e9 d5bb 19ce 34bc d6d9 1b3c
000001d0: 4da8 0a3b b512 27bc 43e0 cd3a 5855 25b9
000001e0: b19c 4b3c 3c55 7c3c 8876 073b 9c08 85bc
000001f0: 219f f03a 2b16 8bbb 756a 0f3c bd1c 6dbb
00000200: 477c cabc 618f 5f3b 2696 bf3b 81af 5cbc
00000210: 12d6 11bd 8028 14bd c936 6bbc 10fe 4ebc
00000220: 4acd 863c f8da c63a de16 acbb 9401 713c
00000230: b807 36bb deb2 843c 038f 8c3c 09d4 1e3b
00000240: 392f b63c 8bad 4f3b 435d 39bc 9e10 2d3b
00000250: be2c 853c c9a8 c03a 9df0 a33c 3505 343c
00000260: 9d07 27bc f07d 90bc 7de8 8538 85fd 93bc
00000270: 0e1b 1cbd cccc 84bc 9607 04bd 9c88 08bc
00000280: bbe6 03bc 5af0 503c 077f b13c a504 613b
00000290: bc06 34bb 5415 f73b 7197 f13b f261 5ebc
000002a0: faf9 ea38 03f5 263c cc5c 8dbc 17a4 443c
000002b0: 8a67 88bc 21c5 25bc b56b 153b edd9 fcbb
000002c0: 632e 823c 6eaf f53a e916 813c 023a 95bc
000002d0: 7e73 24b9 ecc6 18bb 7aa2 053c 55cf c0bc
000002e0: 1c45 03bc 40cf 8b3b 0495 063c 67b7 633a
000002f0: 5907 53bc 19eb cabb 9a3f 2d3c 950f 9c3c
00000300: a5df 40bc 0abc 15bc 9eae a63c f4ae 83bc
00000310: db0a fb3b c480 68bc 826f 09bb 5198 60bc
00000320: e2d2 a83c e571 9dbc 8c1f b1bc 4de7 05bd
00000330: b7ed abbc 16f1 363c f123 6b3c 6d50 aabb
00000340: 08c8 99bb 4cb8 9cbc f58f a43b b9f6 8e3b
00000350: f221 8939 bfa9 a8bc 8aa5 cc39 4392 90bb
00000360: 0554 9d3c 6428 943b 54f4 65bc ff76 a13c
00000370: f9f8 613c b459 003b 45f1 403c 3c37 a5bb
00000380: b8d8 7839 eb64 be3b 04d4 203c 9e98 143c
00000390: ac7b a43b eb92 97bb 19f0 8cbc dc46 823b
000003a0: 92c5 64bc 1c46 45bc 6f19 efbb 9bf8 23bc
000003b0: d4b5 4ebc b501 353c dabc a03c c041 c5bb
000003c0: 7a68 f5bb 91f2 c43b ec57 b63a cf13 fdbb
000003d0: 4ec1 073c 86be 653c 91af 5c3c 920a 833b
000003e0: 3fad 5cbc 6c37 b93b c21c 413c 37ed 453c
000003f0: d2a5 2ebc d6d1 5b3a dbef ae3b 8f48 ddba
0.016260795 -0.0155596025 0.0017039628 -0.0055435207 -0.021321032 -0.009217708 0.012323928 -0.014796758
-0.010537085 0.0026550496 0.009668657 0.015142555 0.0052315686 -0.012296873 0.0052848537 0.0050674393
-0.021532174 -0.0062623327 -0.008662984 -7.8811536e-05 0.004456894 -0.0054890662 0.0009941834 -0.015349056
-0.0077145356 0.0052253418 -0.010017277 -0.018338664 -0.020049369 -0.005826105 -0.01995766 -0.018713027
-0.021236973 -0.009263716 -0.0031362392 0.0201433 0.020947982 0.016044086 -0.006191648 -0.016034802
0.019617507 -0.015458086 -0.016273782 -0.0019326516 0.016143495 -0.0043951496 -0.0023164733 0.0014971665
-0.0030155936 0.014979903 -0.021285072 0.00335822 -0.0026588698 -0.0072832294 -0.01605828 0.013263567
-0.021706823 0.0028744026 0.004217545 0.0005807358 -0.012759263 -0.01199049 0.009367289 0.0040387665
0.0043958793 -0.01263504 -0.004014405 -0.012033397 -0.00842622 0.016025878 -0.013446762 -0.008771381
-0.004884197 -0.016374417 4.5281566e-05 0.0014784834 -0.00548564 0.0018000664 -0.02032376 -0.017663402
0.019572947 -0.018518059 0.0017417647 -0.0052362583 0.0058667287 -0.007884207 0.0007562358 -0.011447599
-0.0032738512 -0.006627256 -0.0018124087 -0.0028124636 0.0017637281 -0.0067007146 0.009961304 -0.009053068
-0.012413148 0.014507905 -0.014044411 -0.0007314358 0.010465849 -0.0017647888 0.017163126 0.0020670064
-0.011082849 0.004077016 -0.025672153 -0.0041825473 -0.017783042 -0.015129465 -0.0096715605 0.015018863
0.0025375097 -0.0065280804 -0.011035466 0.009512385 0.0021157444 -0.010197331 0.0015707094 -0.00015767419
0.012427495 0.015401181 0.0020670015 -0.016239457 0.0018357971 -0.004244586 0.008753409 -0.003618046
-0.024717463 0.003411256 0.0058467565 -0.013469578 -0.035604544 -0.036171436 -0.0143563235 -0.012633815
0.016455311 0.0015171459 -0.0052517494 0.014709849 -0.0027775597 0.016198572 0.017158037 0.002423527
0.022239314 0.0031689133 -0.011313739 0.002640761 0.016256686 0.0014698739 0.020012194 0.01098757
-0.010194686 -0.017638177 6.3852385e-05 -0.018065223 -0.03811174 -0.016210936 -0.032233797 -0.008333351
-0.008050616 0.012752617 0.021667017 0.0034335044 -0.0027469834 0.0075403843 0.0073727896 -0.013573157
0.00011204551 0.010190251 -0.017256163 0.012002013 -0.016650934 -0.0101178 0.0022799794 -0.0077164085
0.01589126 0.0018744299 0.015757995 -0.018216137 -0.00015683283 -0.0023311926 0.008156413 -0.023536364
-0.008012082 0.0042666495 0.008214239 0.0008686692 -0.01288017 -0.0061925766 0.010574246 0.019050399
-0.011772071 -0.00913907 0.020346936 -0.016074635 0.007661206 -0.014190856 -0.0020971005 -0.01370819
0.02060837 -0.019219348 -0.021621488 -0.03269129 -0.020987375 0.011165878 0.014351831 -0.005197576
-0.004693035 -0.019130848 0.005022044 0.0043629077 0.00026155967 -0.020588754 0.00039033248 -0.004411967
0.019205103 0.0045214165 -0.014035303 0.019710062 0.01379227 0.0019584717 0.011776273 -0.005041985
0.00023731857 0.00581037 0.009816173 0.00906959 0.0050196256 -0.0046256683 -0.017204331 0.0039757323
-0.01396312 -0.012040641 -0.007296733 -0.010008003 -0.012616593 0.01104777 0.019621301 -0.006019801
-0.007489261 0.0060103615 0.0013911701 -0.0077233086 0.0082858335 0.014022475 0.013469593 0.003999063
-0.013469039 0.0056523588 0.011786642 0.012080482 -0.010659652 0.0008385455 0.0053386516 -0.0016882586

linear.bias f4 [10]
00000000: 4412 9b3d b347 19bd 339b 673d d7c2 e23b
00000010: 43bc 94bd 1108 213c 748c d7bc a0fb 7abc
00000020: 7751 383d a228 4fbd
0.07571843 -0.037421893 0.056544494 0.0069201994 -0.072624706 0.009828583 -0.02631209 -0.015318781
0.044999566 -0.05057586
