sounds_classify_BiLSTM/lstm.pth (torch, 594723 bytes, 10 tensors)

lstm.weight_ih_l0 f4 [400, 64]
0	0xbec85283	-0.3912545
1	0xbd65f2c3	-0.05613972
2	0xbf37e7ea	-0.7183825
3	0x3edb84a5	0.42874637
4	0x3e94f1c5	0.29090706
5	0x3c3c95d4	0.011510331
6	0x3e265d50	0.16246533
7	0x3e20988d	0.15683194
8	0xbd69b9e0	-0.05706203
9	0x3efe189f	0.4962816
10	0xbe0701c8	-0.13184273
11	0xbf280ea3	-0.65647334
12	0xbf1d8fb1	-0.6154738
13	0xbec30865	-0.38092342
14	0xbf1f1aeb	-0.6215045
15	0xbe748867	-0.23880158
16	0xbe34c748	-0.17654145
17	0xbdd17e5b	-0.102291785
18	0x3d184c95	0.03718241
19	0x3ed46038	0.4147966
20	0x3e13e7f8	0.14443958
21	0x3d1eb48a	0.038746394
22	0x3cf5cba0	0.030004323
23	0xbe293170	-0.16522765
24	0xbe850622	-0.2598124
25	0xbe71fa13	-0.23630552
26	0x3e1f703a	0.15570155
27	0xbeef9694	-0.4679457
28	0xbdf0337b	-0.11728569
29	0xbf0ffa86	-0.56241643
30	0xbe707134	-0.23480684
31	0xbe56388d	-0.2092001
32	0xbe269975	-0.16269477
33	0xbe33c462	-0.17555383
34	0xbebc573a	-0.367853
35	0xbe9f0afc	-0.31063068
36	0xbe776068	-0.2415787
37	0xbeb572af	-0.3543906
38	0xbec9a914	-0.3938681
39	0xbec51ec2	-0.3850003
40	0xbeda5187	-0.42640325
41	0xbf11149c	-0.5667207
42	0xbec89b69	-0.3918107
43	0xbf388ed8	-0.7209296
44	0xbf8d6f49	-1.1049587
45	0xbf3e26ca	-0.7427794
46	0xbef08a86	-0.46980685
47	0x3d5213f0	0.051288545
48	0x3ee1b216	0.4408118
49	0x3ed006fb	0.40630326
50	0x3d8a86ac	0.06763968
51	0x3d106e43	0.035261404
52	0x3e79e64c	0.24404258
53	0x3e22f650	0.15914273
54	0x3e35fc32	0.17771986
55	0xbe016668	-0.12636721
56	0x3f0cb3ff	0.5496215
57	0x3ee0243d	0.43777648
58	0x3d9f1a68	0.077687085
59	0x3e7b0388	0.24513066
60	0x3eca6d91	0.39536718
61	0x3cad6dc0	0.021170497
62	0x3ee88cef	0.45420024
63	0x3f304c9b	0.6886689
64	0xba93fa30	-0.0011289772
65	0x3d246f26	0.040145062
66	0x3cfa6cba	0.030569423
67	0x3d5dcaf8	0.054148644
68	0x3d2fcc0e	0.04291921
69	0x3bae62d1	0.0053218384
70	0x3c84d41e	0.016214427
71	0x3a9be919	0.001189503
72	0x3cfe13e4	0.031015344
73	0x3cda6e9c	0.02666407
74	0x3d083ecd	0.033263016
75	0x3cef7cb3	0.029234266
76	0x3d148cfb	0.036267262
77	0x3d8c90d2	0.0686356
78	0x3d005635	0.031332213
79	0xbc6552f4	-0.013996828
80	0xbcff0322	-0.031129424
81	0x3c64b4b9	0.013959103
82	0x3ce890ed	0.028389418
83	0x3b260104	0.0025330195
84	0x3c4ee12a	0.0126269255
85	0x3ccff0ef	0.02538344
86	0x3c6a92a3	0.0143171875
87	0x3d0f446f	0.034977373
88	0x3cc4cc6b	0.024023255
89	0x3c2e25a7	0.010629094
90	0x3ca7a02e	0.020462122
91	0x3a1a540e	0.0005887159
92	0x3c8e283e	0.017353173
93	0x3c17ed0c	0.009272825
94	0x3c5a7572	0.013333665
95	0x3c6e6fa7	0.014552987
96	0x3c79eee8	0.015254714
97	0x3cfc52cc	0.0308012
98	0x3c9302fb	0.017945757
99	0x3cb2313b	0.02175199
100	0x3bb44112	0.005500921
101	0x3c515d19	0.012778544
102	0x3c6c06b8	0.014405899
103	0x3c86d2e4	0.016457982
104	0x3dd22dfb	0.10262676
105	0x3de55e7e	0.111996636
106	0x3de758ac	0.1129621
107	0x3dac1f78	0.0840444
108	0x3d9499af	0.07255875
109	0x3d738cc1	0.059460405
110	0x3cd95105	0.026527891
111	0x3d6e85a9	0.058232937
112	0x3c786f2b	0.015163223
113	0x3d122675	0.035681207
114	0x3dddd1c2	0.10831024
115	0x3dcbc22c	0.09949145
116	0x3d2d921f	0.04237568
117	0x3d1de4a0	0.038548112
118	0x3c9527ae	0.018207397
119	0x3d29bdf9	0.041440938
120	0x3cad253b	0.021135917
121	0x3c43166c	0.011907201
122	0xbb967598	-0.004591655
123	0x39c260a8	0.00037074578
124	0x3d31b3d7	0.0433844
125	0x3d86b36d	0.065771915
126	0x3d60e5de	0.05490672
127	0x3d8bd1fc	0.06827161
128	0xbc370eb4	-0.011172939
129	0xbcd50059	-0.026001142
130	0xbd235a34	-0.039880946
131	0xbd075e63	-0.033049
132	0xbd083e6b	-0.03326265
133	0xbd204fc3	-0.039138567
134	0xbcd06f1c	-0.025443606
135	0xbc15f543	-0.009152713
136	0xbc692bd4	-0.014231641
137	0xbcb5ecb3	-0.022207594
138	0xbbeb6129	-0.0071832133
139	0xbb8dc959	-0.004326981
140	0xbc766d50	-0.015040711
141	0xbc9532eb	-0.018212756
142	0xbc467518	-0.012112878
143	0xbbe1dead	-0.006893
144	0xbc586e00	-0.01320982
145	0x3b0021b4	0.0019551339
146	0xbc5d6bd3	-0.013514477
147	0xbc4150aa	-0.011799017
148	0xbc85098b	-0.016239902
149	0xbcd5963a	-0.02607261
150	0xbc3fee27	-0.011714495
151	0x3b0198f6	0.001977501
152	0x3d0b989a	0.03408108
153	0x3ce03dd9	0.027373241
154	0x3c729eb1	0.014808343
155	0x3ce9e09d	0.028549487
156	0x3d30b421	0.043140534
157	0xbc144adb	-0.00905105
158	0xbc605ea2	-0.013694437
159	0xbcac25a9	-0.021014052
160	0xbbd49285	-0.006487193
161	0xbc8ee60f	-0.017443685
162	0x3d0d0a95	0.03443392
163	0x3d0d16b0	0.034445465
164	0x3d39fd75	0.04540773
165	0x3de9a9ad	0.11409316
166	0x3da406bf	0.08009099
167	0x3d8eb0a7	0.069672875
168	0x3d3012e1	0.042986754
169	0x3c565a51	0.013083057
170	0x3a88c2de	0.0010434052
171	0xbc040d1c	-0.008059766
172	0xbcd589c7	-0.026066674
173	0xbc683665	-0.014173125
174	0xbc6bb2a1	-0.01438585
175	0xbc947c85	-0.018125782
176	0xbcd376c5	-0.02581347
177	0xbc9bcb44	-0.019017823
178	0xbc0d4ece	-0.0086247455
179	0xbc80bc35	-0.015714744
180	0xbc7e07d6	-0.015504798
181	0xbc9d93e2	-0.019235555
182	0xbc12497c	-0.008928653
183	0xbca52014	-0.020156898
184	0xbbefd622	-0.007319228
185	0x3b41b1d1	0.002955545
186	0x3c0eac1b	0.008708025
187	0x3c28ebbf	0.0103101125
188	0x3c9eb2f3	0.019372439
189	0x3d902abf	0.07039403
190	0x3d18f57f	0.0373435
191	0x3d5cbbbf	0.053889986
192	0xbcdedc7e	-0.027204748
193	0xbcecdae9	-0.028912978
194	0xbcf8debe	-0.03037965
195	0xbccafb8d	-0.024778152
196	0xbd0ff5af	-0.03514641
197	0xbd68cead	-0.056837726
198	0xbd61010a	-0.05493263
199	0xbcc4a01f	-0.024002133
200	0xbc8bc4b7	-0.017061574
201	0xbd1f6b10	-0.038920462
202	0xbd281a02	-0.041040428
203	0xbd553b15	-0.0520583
204	0xbcfefe5e	-0.031127151
205	0xbd142646	-0.036169313
206	0xbd6be00c	-0.057586715
207	0xbd350971	-0.044198457
208	0xbd3d31bd	-0.046190012
209	0xbd4968f5	-0.04917236
210	0xbb1b91c1	-0.0023738
211	0x3be09d0b	0.0068546585
212	0x3b856198	0.004070472
213	0xbcb572e4	-0.02214951
214	0xbc9a6312	-0.018846069
215	0xbce5cc61	-0.028051557
216	0xbceb5c4c	-0.028730534
217	0xbc8ffdfb	-0.017577162
218	0xbb4b9f51	-0.0031070302
219	0xbc275894	-0.01021399
220	0xbcbd17a3	-0.02308256
221	0xbca16c65	-0.019705007
222	0xbc3b1a20	-0.011419803
223	0xbc098933	-0.008394527
224	0x3ba1ca2b	0.0049374304
225	0xbc126ddb	-0.008937324
226	0xbd57680b	-0.052589457
227	0xbcb1d980	-0.021710157
228	0xbc86ed8a	-0.01647069
229	0xbb898285	-0.0041964673
230	0xbba47eb1	-0.0050199856
231	0xbca4b5bd	-0.02010619
232	0xbc5a4d89	-0.01332415
233	0xbc50afc8	-0.012737222
234	0xbc1a9abf	-0.009436308
235	0xbc4ac152	-0.012375193
236	0xbc7e5054	-0.015522081
237	0xbc25f879	-0.010130041
238	0xbc8756d8	-0.016520903
239	0xbc5c1775	-0.013433327
240	0xbc702587	-0.014657385
241	0xbc1a6349	-0.0094230855
242	0xbc72c0fe	-0.014816521
243	0xbc63a701	-0.013894797
244	0xbc70c947	-0.014696426
245	0xbca78af9	-0.02045201
246	0xbcb77ccb	-0.022398373
247	0xbc8346c7	-0.01602496
248	0xbba151b9	-0.004923072
249	0xbbb82c3e	-0.0056205085
250	0xbcd1054c	-0.025515221
251	0xbb8db94d	-0.004325068
252	0xbc887dfd	-0.016661638
253	0xbc964c5e	-0.018346962
254	0xbc211708	-0.009832151
255	0xbc922fef	-0.017845122

lstm.weight_hh_l0 f4 [400, 100]
0	0xbdf66e7b	-0.12032791
1	0x3e1ba9b0	0.1520145
2	0xbcfb4210	-0.03067115
3	0xbcfb4144	-0.03067077
4	0x3ba8c5e1	0.005150542
5	0x3e85b9a3	0.26118192
6	0xbd28d25d	-0.041216243
7	0x3d296956	0.04136022
8	0xbd09e6bb	-0.033667307
9	0xbdad7a4c	-0.08470592
10	0x3c3c8d50	0.011508301
11	0xbe73fb4b	-0.2382633
12	0xbd19f22b	-0.037584465
13	0xbced8cff	-0.028997896
14	0x3d10bb5b	0.035334926
15	0x3cf2b413	0.029626882
16	0xbd1c70d2	-0.03819353
17	0x3e8a5985	0.27021423
18	0xbd61eb48	-0.055156022
19	0x3d045a0a	0.03231243
20	0x3e310a59	0.17289104
21	0xbc5b1054	-0.013370592
22	0xbee4f494	-0.44717848
23	0x3d01dbe3	0.03170384
24	0x3b52a115	0.003213947
25	0x3c8b410f	0.016998796
26	0x3c3b8a7b	0.011446591
27	0x3d047c28	0.032344967
28	0x3cfa40f3	0.030548548
29	0x3c13b06e	0.009014232
30	0x3d8e9a6c	0.069630474
31	0xbe0053f5	-0.12532027
32	0xbce5941e	-0.02802473
33	0x3ce77732	0.028255079
34	0x3cff3504	0.03115321
35	0xbc06d756	-0.008230051
36	0x3d09c7ff	0.033637997
37	0xbc9e554a	-0.019327778
38	0xbcd3385d	-0.025783712
39	0xbeac8ebc	-0.33702648
40	0x3d1b646a	0.03793756
41	0xbc3d21c6	-0.011543697
42	0x3f5986b0	0.8497114
43	0x3d96354f	0.073343866
44	0xbcb3586a	-0.021892745
45	0x3d31f020	0.04344189
46	0x3e32fbf6	0.17478928
47	0xbd22dc03	-0.0397606
48	0x3eab1528	0.33414578
49	0x3cde7e73	0.027159905
50	0x3b3ba615	0.0028632928
51	0xbdd499b6	-0.103808805
52	0x3d317278	0.043322057
53	0xbc8e4edb	-0.017371586
54	0xbb963e0b	-0.004585033
55	0xbd426be8	-0.04746619
56	0x3bc69ab8	0.0060609244
57	0x3db20470	0.08692253
58	0x3cd2d55a	0.0257365
59	0x3f038d92	0.51387894
60	0xbd0f458d	-0.03497844
61	0x3cff3acd	0.031155968
62	0xbd1682d8	-0.036745876
63	0xbe93bcff	-0.2885513
64	0x3ce14c5c	0.027502231
65	0xbcdb5d29	-0.02677782
66	0xbc0148c4	-0.007890884
67	0xbb9410d0	-0.004518606
68	0x3c2663a9	0.010155597
69	0xbb8a40cb	-0.0042191497
70	0xbc426832	-0.011865662
71	0xbc29dbbd	-0.010367331
72	0x3c9fa064	0.01948566
73	0x3caf8477	0.021425469
74	0x3eebe0e9	0.4607003
75	0x3c977c96	0.018492024
76	0x3b4e8498	0.0031512138
77	0x3c8e9651	0.01740566
78	0x3c6c98da	0.0144407395
79	0x3c060b6c	0.008181434
80	0x3d1483ea	0.036258616
81	0xbdaa73d8	-0.08322877
82	0xbe0f8e2c	-0.14019078
83	0xba5f8615	-0.00085267547
84	0xbcbd5d19	-0.023115681
85	0x3ac0be9e	0.0014705246
86	0xbcbc7d50	-0.023008972
87	0xbca6c4f4	-0.020357586
88	0x3e1dfa9c	0.15427631
89	0xbd809c3e	-0.06279801
90	0xbc3a7b08	-0.011381872
91	0xbf04788c	-0.5174644
92	0x3eca87ca	0.39556724
93	0xbd01518c	-0.03157191
94	0x3b3696c7	0.0027860866
95	0xbce9c003	-0.028533941
96	0xbe710e96	-0.2354072
97	0xbb4c51e5	-0.0031176743
98	0xbc70b930	-0.01469259
99	0xbeacce80	-0.33751297
100	0xbb0c33ea	-0.0021393248
101	0x3b7455d6	0.0037282608
102	0x3b0675d7	0.0020517015
103	0x3a347c54	0.00068849814
104	0x39c911a1	0.00038350842
105	0x3da9c63f	0.082897656
106	0x39fff9ee	0.00048823602
107	0xb9aceffa	-0.00032985193
108	0xb8adcc09	-8.287287e-05
109	0x3d4ad47d	0.04951905
110	0x3aa9b459	0.0012947425
111	0xbd170dba	-0.036878325
112	0x3a731315	0.0009272558
113	0x3a329e15	0.0006813717
114	0xb936317c	-0.00017375307
115	0x3afa2ea1	0.0019087383
116	0x3a7f46ab	0.00097380084
117	0x3c93e890	0.01805523
118	0xbabac43e	-0.0014249159
119	0x3b49ec31	0.0030810947
120	0xbcec2091	-0.028824123
121	0xba7a60ff	-0.00095511967
122	0xbd19845e	-0.03747975
123	0x39faf1da	0.0004786391
124	0xba9c2494	-0.0011912757
125	0x3961afdc	0.00021523185
126	0xba8ef9f3	-0.0010908231
127	0x393cf87b	0.00018021643
128	0xba0422d8	-0.00050405925
129	0x3a8fede9	0.0010980937
130	0xbaae15d0	-0.0013281647
131	0xbcb8d9b7	-0.022564752
132	0xba401d9a	-0.000732863
133	0xbba37548	-0.0049883462
134	0x36d3c408	6.311111e-06
135	0xb9f1c992	-0.00046117284
136	0xb9305825	-0.00016817504
137	0xbc9bcb55	-0.019017855
138	0x3ab54e38	0.0013832515
139	0xbdefd02e	-0.11709629
140	0x3a850195	0.0010147566
141	0x3936a9c2	0.00017420112
142	0x3d139ec4	0.036040083
143	0x3a4e72a7	0.0007875361
144	0x3b3d4106	0.0028877868
145	0xba012030	-0.0004925756
146	0x3dc780f4	0.09741393
147	0xbac2c1b8	-0.0014858758
148	0x3dd8c7d4	0.10584989
149	0x3ae96f7f	0.0017809718
150	0xbaf02bd2	-0.0018323606
151	0xba000fb5	-0.0004885153
152	0xb983cdb9	-0.00025139542
153	0x3ae03372	0.0017105176
154	0x3a672eff	0.00088189536
155	0x3b52b039	0.0032148494
156	0xbba44f3e	-0.005014329
157	0x3cb7a226	0.022416186
158	0x3b05a5e7	0.0020393075
159	0xbc8f9579	-0.017527329
160	0x3a175484	0.00057727867
161	0xba13893a	-0.00056280533
162	0x3af17644	0.0018422087
163	0x3cae8cbe	0.021307345
164	0x3a08c668	0.0005217553
165	0x38f8f91f	0.00011871964
166	0x3ab8f44a	0.001411089
167	0x3bb1980f	0.005419738
168	0xba80d0d3	-0.000982786
169	0xbaecafb2	-0.0018057732
170	0x3a4b7d9a	0.00077625515
171	0x3a53e6c3	0.00080833974
172	0x3ac4df20	0.001502011
173	0xb71b2460	-9.247189e-06
174	0xbcde5a1f	-0.027142582
175	0xb6b1f028	-5.302969e-06
176	0x3a169d45	0.0005745481
177	0xb9c8d878	-0.00038308254
178	0xb9419bb4	-0.00018463918
179	0x39b79d98	0.00035021896
180	0x3b313b34	0.0027043344
181	0xbaff812e	-0.0019493455
182	0xbb3bd505	-0.0028660905
183	0x3a8eecff	0.001090437
184	0xbacdef5a	-0.0015711591
185	0xbd2a586c	-0.041588232
186	0xbaf7792c	-0.0018880717
187	0x3d53e2f1	0.0517301
188	0x3b5a78b5	0.0033336107
189	0x3a530eaf	0.0008051199
190	0xbb32af1f	-0.0027265025
191	0xbcf5e048	-0.030014172
192	0x3cca338a	0.024682779
193	0x3b1e0952	0.0024114442
194	0x3afe0da5	0.0019382728
195	0xbaa8365d	-0.0012833584
196	0x3c0ab0b4	0.008464981
197	0xbac59c03	-0.0015076402
198	0x39f0bc50	0.0004591667
199	0xbdd9197d	-0.10600565
200	0xbd4516ec	-0.048117563
201	0x3c16f556	0.009213766
202	0x3b348fdc	0.0027551567
203	0x3c027f88	0.007964976
204	0x3be215ed	0.0068995864
205	0x3cd24381	0.025666954
206	0x3b425f94	0.002965902
207	0x3b4e6ff3	0.0031499832
208	0x3994228d	0.00028254502
209	0xbb1fe896	-0.0024400107
210	0x3b684c91	0.0035446028
211	0xbd420a44	-0.04737307
212	0x3c2f6a18	0.010706447
213	0x3c2b33ce	0.010449363
214	0x3c01c1e3	0.007919761
215	0x3cf79524	0.030222483
216	0xb7010b31	-7.691605e-06
217	0xbb856fa0	-0.0040721446
218	0xbcc76f44	-0.024345048
219	0x3afa5d24	0.0019101244
220	0xbcb2e3ef	-0.021837203
221	0x3c1cc230	0.009567782
222	0xbb86d0d6	-0.0041142507
223	0xba1481c9	-0.00056650914
224	0xbbf87767	-0.0075825932
225	0xbc675513	-0.014119404
226	0x39f6b285	0.00047053784
227	0x3794a79b	1.7721022e-05
228	0xbbdbc470	-0.006706767
229	0xb9b74798	-0.00034957821
230	0xba8253a2	-0.0009943137
231	0x3cd518b6	0.02601276
232	0xbb417025	-0.0029516306
233	0x3bf32aa0	0.007420853
234	0x3b918468	0.004440833
235	0x3c566222	0.01308492
236	0xba45a42e	-0.00075394183
237	0xbcbcdad3	-0.023053562
238	0xbb1ec3e5	-0.002422565
239	0xbdbc415e	-0.09192155
240	0x3c84aa6f	0.01619455
241	0xbb30b600	-0.002696395
242	0xbaecf039	-0.0018076963
243	0xbba2c2cf	-0.0049670707
244	0x3d0a3cf2	0.03374953
245	0x3c22bb83	0.009932402
246	0x3d70fcce	0.058834843
247	0xbcacc800	-0.021091461
248	0x3dabbff9	0.08386225
249	0xbb2eb012	-0.002665524
250	0xbc5bfde9	-0.013427236
251	0x3a0af095	0.0005300132
252	0xbc24a504	-0.010049108
253	0xba27775c	-0.00063883304
254	0x3b9151eb	0.004434814
255	0x3c9b5b18	0.018964335

lstm.bias_ih_l0 f4 [400]
0	0xbdfb7210	-0.12277615
1	0xbde9865b	-0.114025794
2	0xbdb9be2b	-0.09069475
3	0xbdda8579	-0.10669989
4	0xbdcc829b	-0.099858485
5	0x3e8542eb	0.26027617
6	0xbdea9fb6	-0.11456244
7	0xbde4758c	-0.11155233
8	0xbdf73a3b	-0.120716535
9	0x3db5da19	0.088794895
10	0xbe05ce06	-0.13066873
11	0x3eaaf801	0.33392337
12	0xbdb56261	-0.08856655
13	0xbdddd0bc	-0.108308285
14	0xbde4c979	-0.1117124
15	0xbdd6324d	-0.10458813
16	0xbdd3c565	-0.103403844
17	0xbe10c995	-0.14139397
18	0xbdbe827f	-0.09302234
19	0xbda34fd6	-0.07974212
20	0x3d5eff1f	0.05444252
21	0xbded9469	-0.116005726
22	0x3e9ede16	0.31028813
23	0xbe04c900	-0.129673
24	0xbdd82b5a	-0.10555144
25	0xbe001bd3	-0.12510614
26	0xbdfa44bb	-0.122201405
27	0xbda89364	-0.082312375
28	0xbe00370f	-0.12521003
29	0xbe047ad6	-0.12937483
30	0xbe05f1c0	-0.13080502
31	0x3e88883e	0.26666445
32	0xbe08d752	-0.13363388
33	0xbdf56df9	-0.11983866
34	0xbe18ed7e	-0.14934346
35	0xbdc0c5bf	-0.09412717
36	0xbe01db55	-0.12681325
37	0xbd865ee2	-0.06561066
38	0xbda92a13	-0.08259978
39	0x3e10983b	0.14120571
40	0xbdca323f	-0.09872865
41	0xbddd152e	-0.10795055
42	0x3e8d6da1	0.27622703
43	0xbe285167	-0.16437303
44	0xbdd8be50	-0.10583174
45	0xbdde00c9	-0.108399935
46	0x3e3bf5eb	0.18355529
47	0xbde82ed0	-0.11337054
48	0x3cca45da	0.024691511
49	0xbdcdbc3e	-0.1004567
50	0xbe00b215	-0.12567933
51	0xbdf8f07c	-0.12155244
52	0xbdfd2aae	-0.12361656
53	0xbde3d8bd	-0.11125324
54	0xbdcbd619	-0.09952945
55	0xbde5ae03	-0.11214831
56	0x3b2dd696	0.0026525608
57	0x3f207012	0.62671006
58	0xbde1fa40	-0.110340595
59	0x3e0a43e8	0.13502467
60	0xbe019bf0	-0.12657142
61	0xbe093f07	-0.1340295
62	0xbdfdb957	-0.123888664
63	0xbd21f7d7	-0.039543
64	0xbe0d39cc	-0.13791579
65	0xbe306ead	-0.1722972
66	0xbdda32b5	-0.10654203
67	0xbdeed3bf	-0.11661481
68	0xbdf822ce	-0.121160135
69	0xbdec9b6d	-0.115530826
70	0xbe132b7b	-0.14372055
71	0xbe297a64	-0.16550595
72	0xbde99805	-0.114059485
73	0xbdf97930	-0.12181318
74	0x3ed32507	0.41239187
75	0xbdd016ee	-0.101606235
76	0xbdef35da	-0.11680193
77	0xbe071889	-0.13192953
78	0xbde87f09	-0.11352355
79	0xbdc2a99e	-0.09505008
80	0xbdb19db3	-0.08672657
81	0xbe001fd0	-0.12512136
82	0xbe6011da	-0.2188181
83	0xbdf27ba9	-0.118399926
84	0xbddcdf2e	-0.10784756
85	0xbf117a8c	-0.56827617
86	0xbdeba747	-0.11506515
87	0x3f0a70e6	0.5407852
88	0x3e859322	0.26088816
89	0xbe03db01	-0.12876512
90	0xbdc59f0c	-0.096494764
91	0x3de62b7c	0.11238763
92	0x3c9623fc	0.018327706
93	0xbe2d2934	-0.16910249
94	0xbde950fd	-0.113924004
95	0xbddc6596	-0.107615635
96	0x3ee91125	0.45520893
97	0xbdfaf025	-0.12252835
98	0xbdb7bd5c	-0.08971664
99	0x3e46f20e	0.19428274
100	0x3f1d9237	0.6155123
101	0xbde6c1e7	-0.11267453
102	0xbda07449	-0.0783468
103	0xbd85e4a4	-0.0653775
104	0xbd56ba43	-0.052423727
105	0xbd5db676	-0.054129086
106	0xbd831ff3	-0.06402578
107	0xbd8a02e9	-0.06738836
108	0xbd98069b	-0.07423135
109	0x3ecdc4aa	0.40189105
110	0xbd865e61	-0.0656097
111	0x3df331fb	0.118747674
112	0xbd754549	-0.05988053
113	0xbd864d6a	-0.06557734
114	0xbd9c91be	-0.076449856
115	0xbd539c46	-0.051662706
116	0xbd61620d	-0.05502515
117	0xbd0919bb	-0.033471804
118	0xbd58f58b	-0.052968543
119	0xbd2465af	-0.040136036
120	0x3e1df76b	0.15426414
121	0xbd589fe4	-0.05288686
122	0xbda888bc	-0.08229205
123	0xbd8c474a	-0.06849535
124	0xbd732b19	-0.059367273
125	0xbda9bb30	-0.08287656
126	0xbd868641	-0.06568576
127	0xbd8237c0	-0.0635829
128	0xbd93bfe0	-0.072143316
129	0xbd9212d6	-0.07132499
130	0xbdbb7229	-0.09152634
131	0x3f0c9309	0.5491186
132	0xbd9ee91b	-0.07759305
133	0xbd776f8d	-0.060409117
134	0xbdb2e8c2	-0.08735801
135	0xbd354191	-0.044251982
136	0xbd921862	-0.07133557
137	0x3de58446	0.1120687
138	0xbd2aa51d	-0.04166137
139	0x3ebb6dda	0.36607248
140	0xbd5d9623	-0.05409826
141	0xbd4baf70	-0.049727857
142	0x3f25d197	0.64772934
143	0xbdeaaf48	-0.114592135
144	0xbda418ee	-0.080125675
145	0xbd7e4594	-0.062078074
146	0x3e3c3ae0	0.18381834
147	0xbd8372e0	-0.06418395
148	0x3f031cb3	0.51215667
149	0xbd4d8f5b	-0.050185543
150	0xbd9d896a	-0.07692225
151	0xbdbfe3b8	-0.09369606
152	0xbda57924	-0.08079746
153	0xbd783c2c	-0.06060426
154	0xbd5b9fc6	-0.05361917
155	0xbd9a7b39	-0.07543034
156	0xbc379df9	-0.011207097
157	0x3eaeb905	0.34125534
158	0xbd8968bb	-0.06709429
159	0xbdc4eae2	-0.09615113
160	0xbd85e3a2	-0.06537558
161	0xbd903aef	-0.07042491
162	0xbda82ff1	-0.08212269
163	0x3e5762b4	0.21033746
164	0xbdae57ef	-0.08512866
165	0xbdb754eb	-0.08951744
166	0xbd7c3c82	-0.061581142
167	0xbd8a3c29	-0.06749756
168	0xbd5ff8c5	-0.054680604
169	0xbd83d4da	-0.064370826
170	0xbdabf6da	-0.083966926
171	0xbda46e16	-0.0802881
172	0xbd815124	-0.063143045
173	0xbd854e67	-0.06509095
174	0xbd62032f	-0.055178817
175	0xbd73ae9f	-0.059492704
176	0xbd876cb0	-0.06612527
177	0xbd950075	-0.07275478
178	0xbd5ed43b	-0.054401617
179	0xbd831afa	-0.0640163
180	0xbd656d8e	-0.056012683
181	0xbd45e786	-0.0483165
182	0xbd7219c6	-0.05910661
183	0xbd8a7e5c	-0.067623824
184	0xbd666ca5	-0.056255955
185	0x3f32f726	0.6990837
186	0xbd84cbb1	-0.064841636
187	0x3db7e751	0.08979667
188	0x3d96419c	0.07336733
189	0xbdbe7dba	-0.09301324
190	0xbd395041	-0.04524255
191	0x3e275184	0.1633969
192	0x3ec04001	0.3754883
193	0x3eff24be	0.4983272
194	0xbd80914d	-0.06277714
195	0xbd6d3d66	-0.057919882
196	0x3e759994	0.23984367
197	0xbd950497	-0.07276266
198	0xbd9816b3	-0.074262045
199	0x3eb6f987	0.3573725
200	0xbeb49840	-0.35272408
201	0x3c03c15d	0.008041707
202	0xbbc97c32	-0.0061488384
203	0xbcb5d00d	-0.022193933
204	0xbc29221a	-0.010323072
205	0xbf1274c4	-0.5720942
206	0xbcc6dd9d	-0.024275595
207	0xbc244798	-0.010026835
208	0x3bfc34eb	0.007696738
209	0xbbc58f2b	-0.00602903
210	0x3c9efbbf	0.019407151
211	0xbe6bf78b	-0.23043649
212	0xbcff18c7	-0.031139744
213	0xbc5414d3	-0.012944418
214	0xb81bc573	-3.713877e-05
215	0xbb8832e5	-0.0041564577
216	0x3bf5aa20	0.007497087
217	0x3f1a462c	0.60263324
218	0xbc2f0119	-0.010681414
219	0x3d14aab8	0.036295623
220	0x3d953c86	0.072869346
221	0x3c3e4db1	0.011615203
222	0x3e4d0074	0.20019704
223	0x3c33a2e1	0.010964126
224	0x3c0e851b	0.008698727
225	0x3c98b143	0.018639212
226	0xbba96278	-0.005169209
227	0x3d3742b4	0.044741347
228	0x3c3960ff	0.01131463
229	0x3c7f09f9	0.0155663425
230	0x3c0bcdf2	0.008532988
231	0xbde2b0c5	-0.11068872
232	0x38b7ebee	8.770065e-05
233	0xbd74f48b	-0.059803527
234	0x38c10ec0	9.2057046e-05
235	0xbc644a28	-0.013933696
236	0xbaae5b7d	-0.0013302412
237	0xbe136e12	-0.14397457
238	0x3c80f3dc	0.015741281
239	0xbe53bf37	-0.20678411
240	0xbc4bf07c	-0.012447473
241	0xbc3b1792	-0.011419194
242	0xbeeb372d	-0.45940533
243	0x3c81b700	0.015834332
244	0xbce8e95a	-0.028431583
245	0xbc49c08d	-0.012313974
246	0xbe6057fb	-0.21908562
247	0xbb0ba874	-0.0021310123
248	0xbe8779d6	-0.2646014
249	0x3c8c7ac2	0.01714838
250	0xbba9bfd2	-0.0051803375
251	0x3b821ecf	0.003970958
252	0x3c8e57d0	0.017375857
253	0x3c442aed	0.011973125
254	0xbc1b48c6	-0.0094778
255	0x3b241218	0.0025035199

lstm.bias_hh_l0 f4 [400]
0	0xbdfb7210	-0.12277615
1	0xbde9865b	-0.114025794
2	0xbdb9be2b	-0.09069475
3	0xbdda8579	-0.10669989
4	0xbdcc829b	-0.099858485
5	0x3e8542eb	0.26027617
6	0xbdea9fb6	-0.11456244
7	0xbde4758c	-0.11155233
8	0xbdf73a3b	-0.120716535
9	0x3db5da19	0.088794895
10	0xbe05ce06	-0.13066873
11	0x3eaaf801	0.33392337
12	0xbdb56261	-0.08856655
13	0xbdddd0bc	-0.108308285
14	0xbde4c979	-0.1117124
15	0xbdd6324d	-0.10458813
16	0xbdd3c565	-0.103403844
17	0xbe10c995	-0.14139397
18	0xbdbe827f	-0.09302234
19	0xbda34fd6	-0.07974212
20	0x3d5eff1f	0.05444252
21	0xbded9469	-0.116005726
22	0x3e9ede16	0.31028813
23	0xbe04c900	-0.129673
24	0xbdd82b5a	-0.10555144
25	0xbe001bd3	-0.12510614
26	0xbdfa44bb	-0.122201405
27	0xbda89364	-0.082312375
28	0xbe00370f	-0.12521003
29	0xbe047ad6	-0.12937483
30	0xbe05f1c0	-0.13080502
31	0x3e88883e	0.26666445
32	0xbe08d752	-0.13363388
33	0xbdf56df9	-0.11983866
34	0xbe18ed7e	-0.14934346
35	0xbdc0c5bf	-0.09412717
36	0xbe01db55	-0.12681325
37	0xbd865ee2	-0.06561066
38	0xbda92a13	-0.08259978
39	0x3e10983b	0.14120571
40	0xbdca323f	-0.09872865
41	0xbddd152e	-0.10795055
42	0x3e8d6da1	0.27622703
43	0xbe285167	-0.16437303
44	0xbdd8be50	-0.10583174
45	0xbdde00c9	-0.108399935
46	0x3e3bf5eb	0.18355529
47	0xbde82ed0	-0.11337054
48	0x3cca45da	0.024691511
49	0xbdcdbc3e	-0.1004567
50	0xbe00b215	-0.12567933
51	0xbdf8f07c	-0.12155244
52	0xbdfd2aae	-0.12361656
53	0xbde3d8bd	-0.11125324
54	0xbdcbd619	-0.09952945
55	0xbde5ae03	-0.11214831
56	0x3b2dd696	0.0026525608
57	0x3f207012	0.62671006
58	0xbde1fa40	-0.110340595
59	0x3e0a43e8	0.13502467
60	0xbe019bf0	-0.12657142
61	0xbe093f07	-0.1340295
62	0xbdfdb957	-0.123888664
63	0xbd21f7d7	-0.039543
64	0xbe0d39cc	-0.13791579
65	0xbe306ead	-0.1722972
66	0xbdda32b5	-0.10654203
67	0xbdeed3bf	-0.11661481
68	0xbdf822ce	-0.121160135
69	0xbdec9b6d	-0.115530826
70	0xbe132b7b	-0.14372055
71	0xbe297a64	-0.16550595
72	0xbde99805	-0.114059485
73	0xbdf97930	-0.12181318
74	0x3ed32507	0.41239187
75	0xbdd016ee	-0.101606235
76	0xbdef35da	-0.11680193
77	0xbe071889	-0.13192953
78	0xbde87f09	-0.11352355
79	0xbdc2a99e	-0.09505008
80	0xbdb19db3	-0.08672657
81	0xbe001fd0	-0.12512136
82	0xbe6011da	-0.2188181
83	0xbdf27ba9	-0.118399926
84	0xbddcdf2e	-0.10784756
85	0xbf117a8c	-0.56827617
86	0xbdeba747	-0.11506515
87	0x3f0a70e6	0.5407852
88	0x3e859322	0.26088816
89	0xbe03db01	-0.12876512
90	0xbdc59f0c	-0.096494764
91	0x3de62b7c	0.11238763
92	0x3c9623fc	0.018327706
93	0xbe2d2934	-0.16910249
94	0xbde950fd	-0.113924004
95	0xbddc6596	-0.107615635
96	0x3ee91125	0.45520893
97	0xbdfaf025	-0.12252835
98	0xbdb7bd5c	-0.08971664
99	0x3e46f20e	0.19428274
100	0x3f1d9237	0.6155123
101	0xbde6c1e7	-0.11267453
102	0xbda07449	-0.0783468
103	0xbd85e4a4	-0.0653775
104	0xbd56ba43	-0.052423727
105	0xbd5db676	-0.054129086
106	0xbd831ff3	-0.06402578
107	0xbd8a02e9	-0.06738836
108	0xbd98069b	-0.07423135
109	0x3ecdc4aa	0.40189105
110	0xbd865e61	-0.0656097
111	0x3df331fb	0.118747674
112	0xbd754549	-0.05988053
113	0xbd864d6a	-0.06557734
114	0xbd9c91be	-0.076449856
115	0xbd539c46	-0.051662706
116	0xbd61620d	-0.05502515
117	0xbd0919bb	-0.033471804
118	0xbd58f58b	-0.052968543
119	0xbd2465af	-0.040136036
120	0x3e1df76b	0.15426414
121	0xbd589fe4	-0.05288686
122	0xbda888bc	-0.08229205
123	0xbd8c474a	-0.06849535
124	0xbd732b19	-0.059367273
125	0xbda9bb30	-0.08287656
126	0xbd868641	-0.06568576
127	0xbd8237c0	-0.0635829
128	0xbd93bfe0	-0.072143316
129	0xbd9212d6	-0.07132499
130	0xbdbb7229	-0.09152634
131	0x3f0c9309	0.5491186
132	0xbd9ee91b	-0.07759305
133	0xbd776f8d	-0.060409117
134	0xbdb2e8c2	-0.08735801
135	0xbd354191	-0.044251982
136	0xbd921862	-0.07133557
137	0x3de58446	0.1120687
138	0xbd2aa51d	-0.04166137
139	0x3ebb6dda	0.36607248
140	0xbd5d9623	-0.05409826
141	0xbd4baf70	-0.049727857
142	0x3f25d197	0.64772934
143	0xbdeaaf48	-0.114592135
144	0xbda418ee	-0.080125675
145	0xbd7e4594	-0.062078074
146	0x3e3c3ae0	0.18381834
147	0xbd8372e0	-0.06418395
148	0x3f031cb3	0.51215667
149	0xbd4d8f5b	-0.050185543
150	0xbd9d896a	-0.07692225
151	0xbdbfe3b8	-0.09369606
152	0xbda57924	-0.08079746
153	0xbd783c2c	-0.06060426
154	0xbd5b9fc6	-0.05361917
155	0xbd9a7b39	-0.07543034
156	0xbc379df9	-0.011207097
157	0x3eaeb905	0.34125534
158	0xbd8968bb	-0.06709429
159	0xbdc4eae2	-0.09615113
160	0xbd85e3a2	-0.06537558
161	0xbd903aef	-0.07042491
162	0xbda82ff1	-0.08212269
163	0x3e5762b4	0.21033746
164	0xbdae57ef	-0.08512866
165	0xbdb754eb	-0.08951744
166	0xbd7c3c82	-0.061581142
167	0xbd8a3c29	-0.06749756
168	0xbd5ff8c5	-0.054680604
169	0xbd83d4da	-0.064370826
170	0xbdabf6da	-0.083966926
171	0xbda46e16	-0.0802881
172	0xbd815124	-0.063143045
173	0xbd854e67	-0.06509095
174	0xbd62032f	-0.055178817
175	0xbd73ae9f	-0.059492704
176	0xbd876cb0	-0.06612527
177	0xbd950075	-0.07275478
178	0xbd5ed43b	-0.054401617
179	0xbd831afa	-0.0640163
180	0xbd656d8e	-0.056012683
181	0xbd45e786	-0.0483165
182	0xbd7219c6	-0.05910661
183	0xbd8a7e5c	-0.067623824
184	0xbd666ca5	-0.056255955
185	0x3f32f726	0.6990837
186	0xbd84cbb1	-0.064841636
187	0x3db7e751	0.08979667
188	0x3d96419c	0.07336733
189	0xbdbe7dba	-0.09301324
190	0xbd395041	-0.04524255
191	0x3e275184	0.1633969
192	0x3ec04001	0.3754883
193	0x3eff24be	0.4983272
194	0xbd80914d	-0.06277714
195	0xbd6d3d66	-0.057919882
196	0x3e759994	0.23984367
197	0xbd950497	-0.07276266
198	0xbd9816b3	-0.074262045
199	0x3eb6f987	0.3573725
200	0xbeb49840	-0.35272408
201	0x3c03c15d	0.008041707
202	0xbbc97c32	-0.0061488384
203	0xbcb5d00d	-0.022193933
204	0xbc29221a	-0.010323072
205	0xbf1274c4	-0.5720942
206	0xbcc6dd9d	-0.024275595
207	0xbc244798	-0.010026835
208	0x3bfc34eb	0.007696738
209	0xbbc58f2b	-0.00602903
210	0x3c9efbbf	0.019407151
211	0xbe6bf78b	-0.23043649
212	0xbcff18c7	-0.031139744
213	0xbc5414d3	-0.012944418
214	0xb81bc573	-3.713877e-05
215	0xbb8832e5	-0.0041564577
216	0x3bf5aa20	0.007497087
217	0x3f1a462c	0.60263324
218	0xbc2f0119	-0.010681414
219	0x3d14aab8	0.036295623
220	0x3d953c86	0.072869346
221	0x3c3e4db1	0.011615203
222	0x3e4d0074	0.20019704
223	0x3c33a2e1	0.010964126
224	0x3c0e851b	0.008698727
225	0x3c98b143	0.018639212
226	0xbba96278	-0.005169209
227	0x3d3742b4	0.044741347
228	0x3c3960ff	0.01131463
229	0x3c7f09f9	0.0155663425
230	0x3c0bcdf2	0.008532988
231	0xbde2b0c5	-0.11068872
232	0x38b7ebee	8.770065e-05
233	0xbd74f48b	-0.059803527
234	0x38c10ec0	9.2057046e-05
235	0xbc644a28	-0.013933696
236	0xbaae5b7d	-0.0013302412
237	0xbe136e12	-0.14397457
238	0x3c80f3dc	0.015741281
239	0xbe53bf37	-0.20678411
240	0xbc4bf07c	-0.012447473
241	0xbc3b1792	-0.011419194
242	0xbeeb372d	-0.45940533
243	0x3c81b700	0.015834332
244	0xbce8e95a	-0.028431583
245	0xbc49c08d	-0.012313974
246	0xbe6057fb	-0.21908562
247	0xbb0ba874	-0.0021310123
248	0xbe8779d6	-0.2646014
249	0x3c8c7ac2	0.01714838
250	0xbba9bfd2	-0.0051803375
251	0x3b821ecf	0.003970958
252	0x3c8e57d0	0.017375857
253	0x3c442aed	0.011973125
254	0xbc1b48c6	-0.0094778
255	0x3b241218	0.0025035199

lstm.weight_ih_l1 f4 [400, 100]
0	0xbcc3a782	-0.023883585
1	0x384d0c3a	4.8887196e-05
2	0xb914bdbb	-0.0001418506
3	0xbb17f3b3	-0.0023186028
4	0x39a26b53	0.0003097901
5	0xbc371d1b	-0.011176373
6	0xb9c97667	-0.00038425924
7	0x394f2afb	0.0001975707
8	0x392264b6	0.00015487042
9	0x3b851547	0.0040613743
10	0x39f20206	0.00046159344
11	0xbd2562d5	-0.040377457
12	0xbab98224	-0.0014153165
13	0xbaa2be3d	-0.0012416315
14	0x3aaa7325	0.0013004286
15	0xbb0b947c	-0.002129822
16	0xb98ce448	-0.00026872964
17	0x3cd01797	0.025401874
18	0x3afec469	0.0019437197
19	0x3b4c5d58	0.0031183567
20	0x3b80ae8b	0.003927057
21	0xb978d239	-0.00023729437
22	0x3cbededc	0.023299627
23	0x38f69c23	0.00011759277
24	0x3b9ff1e2	0.0048811296
25	0x3abecd78	0.0014557084
26	0xba1965fb	-0.0005851683
27	0x39087159	0.00013012196
28	0x3a0cdb7a	0.0005373281
29	0x3abd2f47	0.0014433645
30	0xb9a42e77	-0.00031315137
31	0x3c349c52	0.011023598
32	0x3a0f1cdf	0.0005459319
33	0xb8dcbd16	-0.000105256375
34	0xba42738f	-0.0007417732
35	0xbb47d906	-0.0030494346
36	0xb8e20e80	-0.000107792206
37	0xbc3d4ed0	-0.011554435
38	0x3a975fac	0.0011548898
39	0xbd9920bf	-0.07476949
40	0xbb3c5278	-0.0028735679
41	0xb7fed014	-3.0376053e-05
42	0xbce1ebba	-0.027578223
43	0x39c7bbcb	0.00038096154
44	0xbb456d01	-0.0030124786
45	0xbb13f459	-0.0022576062
46	0x3d447bf8	0.04796979
47	0x3b09f292	0.0021049124
48	0x3d8fb8f0	0.07017696
49	0x3b08580e	0.0020804438
50	0x3a83a4c1	0.0010043607
51	0xb81bf50a	-3.718309e-05
52	0x3a1e9cbf	0.00060505787
53	0xb8d5f323	-0.00010201919
54	0xba89eee4	-0.0010523465
55	0xbb82a625	-0.003987091
56	0xbbb62155	-0.0055581727
57	0xbbcb37f3	-0.006201738
58	0x3a9f8810	0.0012171287
59	0x3c74aad2	0.014933305
60	0x3a009e18	0.00049063703
61	0xb9ad387b	-0.00033039213
62	0xb8b308cd	-8.5370244e-05
63	0xbc868c45	-0.016424308
64	0x3a703e5f	0.00091645675
65	0xb9883a8c	-0.00025983562
66	0x3a97fb04	0.0011595194
67	0x3bbe04f9	0.0057989326
68	0x39614047	0.00021481617
69	0xbbcd9be5	-0.0062746876
70	0x396b345b	0.0002243085
71	0x39b94c14	0.00035342632
72	0x3ab6a654	0.0013935068
73	0x39960ca7	0.00028619656
74	0x3c3ef0a6	0.011654055
75	0xba9f63dd	-0.0012160499
76	0x3ac287e7	0.0014841527
77	0xb9c65924	-0.00037831918
78	0x3803ca85	3.1421445e-05
79	0xba3ea4e1	-0.00072724937
80	0x399c2605	0.00029782965
81	0x3776f8c1	1.472066e-05
82	0xba72b80e	-0.00092589937
83	0xbabc3b63	-0.001436096
84	0xb8c20dbb	-9.2531984e-05
85	0x3c961ad9	0.018323349
86	0xb91bd820	-0.00014862465
87	0xbca072fe	-0.019586083
88	0x3cf35eb0	0.029708236
89	0x3b14695c	0.0022645807
90	0x3920ed86	0.00015347273
91	0x3b95cd88	0.0045716204
92	0xbb89fb6a	-0.004210879
93	0x3ccde725	0.025134632
94	0x3986ab08	0.000256859
95	0xbac20efb	-0.001480549
96	0x3bf5916b	0.007494142
97	0xb6e04965	-6.6842645e-06
98	0xb9020fb2	-0.00012403613
99	0xbdb6bd58	-0.08922833
100	0xbd4a4a41	-0.04938722
101	0xba831c1e	-0.0010002886
102	0xbae4a844	-0.0017445167
103	0xba8a4140	-0.001054801
104	0x3945d27e	0.00018865798
105	0xbd15ceb3	-0.036574077
106	0x38d9e95a	0.000103908314
107	0x3aa61d3c	0.0012673507
108	0x3a1de0d7	0.00060225785
109	0x3c86c197	0.016449733
110	0x3984785b	0.00025266674
111	0xbdb42d26	-0.08797674
112	0xba8a30a8	-0.0010543065
113	0x38da57ac	0.0001041138
114	0xbac23fc6	-0.0014820031
115	0xba270d61	-0.0006372538
116	0x38e97868	0.00011132733
117	0x3da849f1	0.08217228
118	0x3ac67f84	0.0015144204
119	0x3b01f60f	0.00198305
120	0x3d162b43	0.03666235
121	0xb92c2f21	-0.00016420755
122	0x3dacd973	0.08439913
123	0xb8c8905d	-9.563633e-05
124	0xb95c7fe1	-0.00021028474
125	0x37c10803	2.3011124e-05
126	0xb9598a2d	-0.00020746207
127	0xbb1298ce	-0.002236891
128	0xb9223b14	-0.00015471532
129	0x3a3457b5	0.00068795244
130	0x393cd228	0.00018007366
131	0x3cc6475d	0.02420395
132	0x39e19433	0.0004302576
133	0xbc6ab705	-0.014325862
134	0xb9b42d2c	-0.0003436593
135	0xbaeca8bb	-0.0018055657
136	0x3a44adbb	0.00075026945
137	0xbd464e97	-0.048414793
138	0x39d67be6	0.00040909572
139	0xbe088056	-0.13330206
140	0xba96b6e0	-0.0011498593
141	0xba2b8e27	-0.00065443147
142	0xbd8fc253	-0.07019486
143	0xb9b4bc85	-0.00034472733
144	0xbad92622	-0.0016567151
145	0xba4d675a	-0.000783553
146	0x3d933cce	0.07189332
147	0x3b0586ce	0.002037454
148	0x3e034f60	0.12823248
149	0x3ac3e5cf	0.0014945808
150	0x3a1728a7	0.00057662505
151	0x39890c3b	0.0002613979
152	0xba245bba	-0.0006269772
153	0x3a771f6f	0.0009426986
154	0x39e99919	0.0004455529
155	0xba143004	-0.0005652907
156	0x3b7acd45	0.0038269323
157	0xbc7be757	-0.01537498
158	0x3a077908	0.00051678764
159	0x3d4cfcbf	0.050045725
160	0x3a58c0fe	0.0008268504
161	0x3a4d5f75	0.00078343536
162	0x39f67f93	0.00047015827
163	0xbd4d94b2	-0.050190635
164	0xba08fe25	-0.0005225859
165	0x37bd1727	2.2541337e-05
166	0x3a126074	0.00055838306
167	0x3c8e4fa0	0.017371953
168	0x3956d1f0	0.00020486838
169	0xbb904e60	-0.0044038743
170	0x3a45ea45	0.00075498625
171	0x3b3131a4	0.0027037645
172	0xb92c9adc	-0.00016460888
173	0xb9d1e51a	-0.0004003428
174	0x3d8fe7e9	0.07026655
175	0xba4ea423	-0.00078827346
176	0xba0dffa3	-0.0005416816
177	0xba2a6a42	-0.0006500819
178	0x3a0da85f	0.00054038124
179	0xbad026b8	-0.001588068
180	0x399b35b6	0.00029603922
181	0x392ca2ef	0.00016463896
182	0xbc4e68cb	-0.012598227
183	0xba91d87f	-0.0011127143
184	0xba037816	-0.00050151476
185	0x3d9c9739	0.07646031
186	0x3adb62cb	0.0016737817
187	0xbd639738	-0.055564135
188	0x3dae68c5	0.08516077
189	0xb9544e4e	-0.00020247066
190	0xbb82fca6	-0.003997403
191	0xbbe2d70f	-0.0069226096
192	0xbcc336c1	-0.02382982
193	0x3d0fee22	0.03513921
194	0x39c9593c	0.00038404192
195	0x3a79267f	0.00095043326
196	0xbab7af13	-0.0014013968
197	0x3ac7b785	0.0015237188
198	0x3a41b96e	0.0007389997
199	0xbe1894ba	-0.14900485
200	0xbcf2f637	-0.02965842
201	0xbcce5f20	-0.025191844
202	0xbd84216c	-0.06451687
203	0x3d00365d	0.031301845
204	0x3ce1c2b4	0.027558662
205	0x3d7c824c	0.0616477
206	0x3b1b7c70	0.0023725294
207	0x3c1945d9	0.009355032
208	0x3d154749	0.036444936
209	0xbead9fde	-0.3391103
210	0x3dafa3f2	0.08576192
211	0xbd5c2d1e	-0.053753965
212	0x3ced45f6	0.028964024
213	0xbcbb0b3f	-0.022832511
214	0xbb970f97	-0.0046100128
215	0xbcec1d56	-0.028822582
216	0xbd356558	-0.044286102
217	0xbe1a8c62	-0.15092614
218	0x3cee884f	0.029117731
219	0x3c4c3657	0.0124641275
220	0x3ebce5df	0.36894128
221	0xbd58bfde	-0.052917354
222	0x3dce9808	0.100875914
223	0x3d3250e8	0.04353419
224	0xbd2ff0af	-0.042954143
225	0xbd8ce4cb	-0.06879576
226	0x3d29b37e	0.041430943
227	0x3c3aafc9	0.0113944495
228	0x3ab2bfa5	0.0013637437
229	0x3c9b66d7	0.018969936
230	0x3e2fdabd	0.17173286
231	0x3d926cdd	0.0714967
232	0x3d014b86	0.031566165
233	0x3daa8919	0.083269306
234	0x3b91fe3f	0.0044553573
235	0xbcb6035a	-0.022218395
236	0x3c85fecd	0.01635685
237	0xbe4aa937	-0.19791113
238	0xbcaffacb	-0.021481892
239	0xbe74c10e	-0.2390177
240	0xbd5982cc	-0.053103253
241	0xbd7f6189	-0.062348876
242	0xbce54649	-0.027987616
243	0xbdb7b6b1	-0.089703925
244	0x3d0716b9	0.032980654
245	0xbcec7176	-0.028862696
246	0x3db5f273	0.08884134
247	0xbc6fd3fe	-0.014637945
248	0xbca239f0	-0.019803017
249	0x3cc389ce	0.023869421
250	0xbd7ed870	-0.06221813
251	0xbda13a87	-0.07872491
252	0x3cc2131e	0.023690756
253	0x3ca6d253	0.020363962
254	0x3c8615ae	0.01636776
255	0x3da7bd94	0.08190456

lstm.weight_hh_l1 f4 [400, 100]
0	0x3990458a	0.0002751763
1	0xba72ac1d	-0.0009257214
2	0x3cc55a86	0.024091017
3	0xba00943d	-0.0004904902
4	0x39b5e741	0.00034695308
5	0x3910fcb4	0.0001382705
6	0x3cd874ed	0.026422942
7	0x3aa903d3	0.0012894816
8	0x39ccc60f	0.00039057477
9	0xbab48a55	-0.0013774136
10	0x39f23708	0.00046198838
11	0x3aaedb18	0.0013340442
12	0x3a9c2027	0.0011911438
13	0x3a8f9032	0.0010953008
14	0xb8c6dc88	-9.482453e-05
15	0x3a4b339b	0.0007751525
16	0x391e8481	0.00015117416
17	0xb981278c	-0.00024634262
18	0x3c1df8e0	0.009641856
19	0xbb5aaa05	-0.00333655
20	0x39b9d452	0.0003544414
21	0xbb76218d	-0.003755662
22	0x3ae63914	0.0017564618
23	0x39d71515	0.00041023703
24	0x398386e2	0.00025086763
25	0x3b801fa6	0.003910023
26	0x3b01fc4f	0.0019834226
27	0xb943424f	-0.00018621351
28	0xb87de3ae	-6.0531944e-05
29	0xbb92302c	-0.004461309
30	0x3a89465a	0.0010473237
31	0xba0dc6eb	-0.0005408364
32	0x3ab3b0a1	0.0013709256
33	0x3bc2c00f	0.0059433053
34	0xb9951ab0	-0.00028439378
35	0x39f2c410	0.00046303915
36	0x39bbb8fa	0.00035805238
37	0xbb1e387b	-0.0024142552
38	0x3c2efc71	0.010680304
39	0xb83b719a	-4.4690074e-05
40	0x3a21eacf	0.0006176652
41	0x3a0067cf	0.0004898281
42	0xb99a7135	-0.00029457515
43	0x3a686ae1	0.0008866024
44	0xbc1b6b09	-0.009485968
45	0xbbb80faa	-0.0056171017
46	0x39c18317	0.00036909498
47	0xbaa90948	-0.0012896443
48	0xbabfbcb6	-0.0014628384
49	0xbac51223	-0.0015035312
50	0xba9f4fa6	-0.0012154474
51	0x3a8869fa	0.001040756
52	0x3a8b77b9	0.0010640539
53	0x3a47479c	0.0007601918
54	0x39081a91	0.00012979867
55	0x3a33adc5	0.0006854202
56	0xba80a698	-0.0009815274
57	0xba854da3	-0.0010170232
58	0x3a8e40a0	0.0010853
59	0xba6704e7	-0.0008812681
60	0x3943e538	0.0001868204
61	0x39dacf95	0.0004173486
62	0x39bc31ff	0.00035895404
63	0xbaa060ef	-0.001223592
64	0x3a9881b9	0.001163534
65	0xbb1d7c84	-0.0024030516
66	0x3c0fa9e0	0.008768529
67	0x39e56e97	0.0004376068
68	0xba7c0bfd	-0.00096148235
69	0xba693632	-0.00088963204
70	0xbad96456	-0.0016585689
71	0x3bdb6383	0.0066952123
72	0x3aa9018c	0.0012894138
73	0x3c88f819	0.016719865
74	0xba4b7480	-0.00077611953
75	0xbc2dcd22	-0.0106079895
76	0xba2e85b9	-0.00066574995
77	0xbaa78710	-0.0012781341
78	0xbc177c22	-0.009245904
79	0x3ad5a55a	0.0016299889
80	0xb9bc87e8	-0.00035959412
81	0x3a32c362	0.00068192754
82	0xb9011798	-0.00012311188
83	0x38860ee4	6.3923915e-05
84	0xb85b8de7	-5.2345826e-05
85	0xbc5dafb8	-0.013530664
86	0x3b0ad325	0.002118298
87	0xba0a40f9	-0.0005273964
88	0x38c4a67a	9.377017e-05
89	0xbba38aba	-0.0049909027
90	0xba1e834d	-0.0006046787
91	0x3a1be45e	0.000594681
92	0x3c0241b7	0.007950238
93	0xb74dea35	-1.2273483e-05
94	0xbab4d0d2	-0.0013795143
95	0x3a29bc7d	0.00064749253
96	0xbbbe59be	-0.005809038
97	0xb9c4c072	-0.00037527416
98	0x3aa936c4	0.0012909998
99	0xb934b3a6	-0.00017233062
100	0x3b2c3f17	0.0026282722
101	0x3c204e5a	0.0097843055
102	0x3d552e32	0.05204601
103	0x3c5ea57f	0.013589262
104	0x3a9c7711	0.001193734
105	0xba5d53b7	-0.00084429554
106	0x3d73259f	0.05936205
107	0x3adf64c2	0.0017043578
108	0x3b3adb2c	0.0028511984
109	0x39d2a80e	0.00040179532
110	0x3a90be34	0.0011043013
111	0xb9589df3	-0.00020658206
112	0x3a99e3b4	0.0011740834
113	0xbb120f8c	-0.0022287099
114	0xbb52740b	-0.0032112624
115	0x39264147	0.00015855311
116	0x3a623824	0.00086295814
117	0x35dffc19	1.6688165e-06
118	0xbb3aeed1	-0.0028523693
119	0xbc9c1fd1	-0.01905814
120	0xba67bf6f	-0.00088404765
121	0xbd9ba141	-0.07599116
122	0xba92964e	-0.001118371
123	0x3992e506	0.00028017926
124	0x3a10c609	0.00055226736
125	0x3d1eabff	0.038738247
126	0x3a9f2449	0.0012141551
127	0xbae4f3e6	-0.0017467707
128	0x3a8bfa3d	0.0010679435
129	0x3b921022	0.0044574896
130	0xba4b8bf1	-0.00077646883
131	0x3a481503	0.00076325255
132	0x3ac1544c	0.0014749854
133	0x3cb2e432	0.021837328
134	0xbb92a820	-0.0044756085
135	0xbb63baf2	-0.003474888
136	0x3b047cbc	0.002021595
137	0xbaae7724	-0.0013310653
138	0xbaf6a122	-0.0018816332
139	0x3b7318e3	0.003709369
140	0xbb7c7c8d	-0.0038526386
141	0xbbb42cd6	-0.005498509
142	0x380438ec	3.1524265e-05
143	0xb899ee2c	-7.3399715e-05
144	0xbcf188e3	-0.029484218
145	0x3c033172	0.008007394
146	0xbc6527b4	-0.013986517
147	0xba5eb904	-0.00084961974
148	0xb910ec3c	-0.00013820914
149	0xba732bc4	-0.0009276236
150	0xb9801d54	-0.00024435914
151	0x3a124b69	0.0005580695
152	0xba6442ac	-0.00087074446
153	0xbb9cfee4	-0.0047911275
154	0xbad00a6f	-0.001587225
155	0x3d575dc0	0.05257964
156	0xbab3d882	-0.001372114
157	0xba990939	-0.0011675722
158	0x3882ac8e	6.231024e-05
159	0xbab3f413	-0.0013729356
160	0xba320ab9	-0.0006791759
161	0xbb5f8bd8	-0.0034110453
162	0xbd0e3438	-0.03471777
163	0xb8c07c86	-9.178468e-05
164	0xb9c76f36	-0.00038039096
165	0xb946e535	-0.00018968138
166	0x3d58f1d4	0.052965
167	0xbc00f754	-0.007871468
168	0xbc35bb37	-0.011091999
169	0x3b5f4e91	0.003407393
170	0x3a842783	0.0010082576
171	0x3ca81b0f	0.020520715
172	0x371fcbb4	9.524567e-06
173	0x3b2f9f20	0.0026797727
174	0xb9db80cc	-0.00041866896
175	0xbd525d66	-0.051358603
176	0xba743e98	-0.00093171885
177	0x3a51e0f3	0.00080062373
178	0xbd25ab73	-0.04044671
179	0x3cef2a40	0.029194951
180	0x3ab23d1a	0.0013598532
181	0x3b1373c2	0.0022499417
182	0x3a19cbac	0.0005866836
183	0xba8800b7	-0.001037619
184	0xbb793bc0	-0.0038029999
185	0xbd661cdd	-0.05617987
186	0x3accf259	0.001563619
187	0xbb07fb03	-0.002074898
188	0x3b78ac3f	0.0037944464
189	0xbd177533	-0.036977004
190	0x37a08021	1.9133151e-05
191	0x3768836e	1.3858878e-05
192	0xbc13b105	-0.009014373
193	0x39aa3729	0.00032466024
194	0x36f39d8f	7.2603066e-06
195	0xba9e14c6	-0.0012060634
196	0x3cf8fd23	0.030394142
197	0xb8a2560a	-7.740788e-05
198	0xb9ba3630	-0.00035517057
199	0x3ac837c2	0.0015275406
200	0x3cd70edf	0.026252208
201	0x3cae94ab	0.021311125
202	0xbd864e87	-0.06557947
203	0x3e27130b	0.16315858
204	0x3d79a522	0.0609485
205	0xbb20af31	-0.0024518485
206	0x3d065f18	0.032805532
207	0x3cded4c2	0.02720106
208	0xbcc9c3e0	-0.024629533
209	0x3c546b80	0.012965083
210	0x3c961e55	0.01832501
211	0x3cfff555	0.031244913
212	0x3d5223e1	0.051303748
213	0xbc6b7e1c	-0.014373329
214	0xbc811bba	-0.015760291
215	0xbd03e778	-0.032203168
216	0x3c990904	0.018681057
217	0xbd2c0871	-0.042000238
218	0xbe3b17e3	-0.18270831
219	0x3dceab35	0.10091249
220	0x3daa7db3	0.083247565
221	0xbe802ec7	-0.25035688
222	0xbc3b4914	-0.011430997
223	0xbcf565f9	-0.02995585
224	0xbb671f77	-0.0035266557
225	0xbeb270d6	-0.34851712
226	0x3c28dacf	0.010306074
227	0x3c8225f6	0.015887242
228	0xbd409697	-0.047018614
229	0xbdad022c	-0.0844768
230	0x3c041a5e	0.008062927
231	0x3c0eea83	0.008722904
232	0xbc15f062	-0.00915155
233	0xbe2bac60	-0.16764975
234	0xbd1b9b46	-0.037989877
235	0x3c043419	0.008069062
236	0x3d4ca937	0.049966063
237	0x3c3a633e	0.0113762
238	0xbe7b17de	-0.24520823
239	0x3c353b6f	0.011061533
240	0xbd3ed748	-0.046592027
241	0xbc7bf8c3	-0.015379134
242	0x3c7e03f6	0.015503874
243	0x3da36454	0.079781204
244	0xbc1272a6	-0.008938467
245	0xbd0a786a	-0.033806242
246	0xb9edfda0	-0.00045393128
247	0xbd62a931	-0.055337135
248	0x3d373e32	0.04473705
249	0x39937fc2	0.00028133212
250	0x3d42b737	0.04753801
251	0x3d51c9d3	0.051217865
252	0x3d2aeab7	0.041727748
253	0x3d50b8e9	0.050957594
254	0xbb9c6dce	-0.004773832
255	0xbe9d64e3	-0.30741033

lstm.bias_ih_l1 f4 [400]
0	0xbdcfc4e9	-0.101449795
1	0xbe29eb8e	-0.16593763
2	0xbf65316d	-0.8952854
3	0xbe7e60e6	-0.24841651
4	0xbdf74dec	-0.12075409
5	0xbe06e298	-0.13172376
6	0xbe651a72	-0.2237337
7	0xbdca28ae	-0.0987104
8	0xbe2db080	-0.1696186
9	0xbde05db5	-0.10955373
10	0xbe043d1c	-0.12913936
11	0xbe105bef	-0.1409757
12	0xbdf504ea	-0.11963828
13	0xbe08591c	-0.13315243
14	0xbe16b86d	-0.1471879
15	0xbe13a3a8	-0.14417899
16	0xbe1938ca	-0.1496307
17	0xbde67961	-0.1125362
18	0xbda300a9	-0.0795911
19	0xbeba7914	-0.364205
20	0xbe22c2c5	-0.15894611
21	0xbe30d266	-0.1726776
22	0xbddcdbc9	-0.10784108
23	0xbe04ef5e	-0.12981936
24	0xbdf92646	-0.12165503
25	0xbe8e1085	-0.27746978
26	0xbe0fa1cb	-0.14026563
27	0xbe2c617a	-0.1683406
28	0xbe1cee4f	-0.15325283
29	0xbf0746df	-0.52842516
30	0xbe0c7548	-0.13716614
31	0xbe0f33fc	-0.13984674
32	0xbde5b101	-0.112154014
33	0xbe543741	-0.20724203
34	0xbe2b743b	-0.16743557
35	0xbe0081a4	-0.12549454
36	0xbe166b46	-0.14689359
37	0xbe885fc4	-0.26635563
38	0x3e0c17c8	0.13680947
39	0xbe0d5c61	-0.13804771
40	0xbe180693	-0.14846258
41	0xbe233468	-0.1593796
42	0xbdf3c45e	-0.119026884
43	0xbe21dc7b	-0.15806763
44	0x3e16969c	0.1470589
45	0xbd908e1a	-0.07058354
46	0xbe1d1a01	-0.15341951
47	0xbe04e14c	-0.12976569
48	0xbe16c429	-0.14723267
49	0xbde5e052	-0.11224426
50	0xbdfe472d	-0.124159195
51	0xbde88e1a	-0.11355229
52	0xbde5eb40	-0.11226511
53	0xbe1dc667	-0.15407716
54	0xbe0c458a	-0.13698402
55	0x3e45754e	0.1928303
56	0xbe160682	-0.1465092
57	0xbe071ccc	-0.13194579
58	0xbe07f943	-0.1327868
59	0xbe051f1b	-0.13000147
60	0xbe1334a3	-0.14375548
61	0xbe171c27	-0.14756833
62	0xbf365e33	-0.71237487
63	0xbe0e3cea	-0.13890424
64	0xbe003ccd	-0.12523194
65	0xbddee54a	-0.10883577
66	0x3e288813	0.16458158
67	0xbe1cd06f	-0.15313886
68	0xbe5e56f9	-0.21712865
69	0xbe0cef2d	-0.13763113
70	0xbdfd54bc	-0.123696774
71	0xbdc999cf	-0.0984379
72	0xbdfab23d	-0.122410275
73	0xbeb85f4e	-0.36010212
74	0xbdfafcb7	-0.12255233
75	0xbc9809b6	-0.018559318
76	0xbe16e40a	-0.14735427
77	0xbdf4b8df	-0.11949324
78	0xbece2233	-0.40260467
79	0xbe1b3181	-0.15155603
80	0xbe0048cc	-0.1252777
81	0xbe088456	-0.13331732
82	0xbe185d3e	-0.14879319
83	0xbe06ef4b	-0.1317722
84	0xbe19d9ae	-0.15024444
85	0xbe3c4f3b	-0.18389599
86	0xbe000e1f	-0.12505387
87	0xbe028f4a	-0.12749973
88	0xbe2e705d	-0.1703505
89	0x3e3fa655	0.18715794
90	0xbe181065	-0.14850004
91	0xbe28d729	-0.16488327
92	0xbd846ff7	-0.06466668
93	0xbddaa328	-0.10675651
94	0xbdd596bb	-0.1042914
95	0xbe14ca76	-0.14530358
96	0xbd58caff	-0.052927967
97	0xbdcfd740	-0.101484776
98	0xbe0f940e	-0.14021322
99	0xbe0a4386	-0.1350232
100	0xbd82dc30	-0.06389654
101	0xbdef6cfa	-0.116907075
102	0x3f6b7ca1	0.91987044
103	0x3f3dcc03	0.7413942
104	0xbd9df40e	-0.07712565
105	0xbda51bb1	-0.08061922
106	0x3f4fbc63	0.8114683
107	0xbd7dd1e3	-0.06196774
108	0xbde33b94	-0.11095348
109	0xbd827657	-0.06370228
110	0xbda3f9cf	-0.080066316
111	0xbda7d48e	-0.081948385
112	0xbd9332bb	-0.071874104
113	0xbdb60b41	-0.08888865
114	0xbdc14049	-0.094360895
115	0xbda8a2d0	-0.08234179
116	0xbddc933b	-0.107702695
117	0xbd843439	-0.06455273
118	0x3ebe6042	0.37182814
119	0x3f31f905	0.695206
120	0xbdbbb2cc	-0.09164962
121	0x3ed997b2	0.42498547
122	0xbd7c01a2	-0.061524995
123	0xbdb146e9	-0.08656103
124	0xbd9e2f47	-0.07723861
125	0x3f1518da	0.58241045
126	0xbdb8d261	-0.090245016
127	0xbdea74bc	-0.114480466
128	0xbdb7ba9f	-0.08971142
129	0x3f4c1097	0.79712814
130	0xbd9f09d7	-0.07765549
131	0xbdb4643f	-0.08808183
132	0xbd8ff7a9	-0.07029659
133	0x3f325ce0	0.69672966
134	0xbdebe04d	-0.11517391
135	0xbda36e92	-0.07980074
136	0xbde1baef	-0.11021983
137	0x3f53c9b0	0.82729626
138	0x3ea975b4	0.33097613
139	0xbdccacce	-0.099938974
140	0xbdc0cf62	-0.09414555
141	0xbddfc5bf	-0.10926389
142	0xbd9e3b05	-0.07726101
143	0xbde27b76	-0.110587046
144	0x3ee65d48	0.44993043
145	0x3e817b18	0.25289226
146	0xbdf0cd67	-0.117579274
147	0xbd94a065	-0.07257155
148	0xbdc572c4	-0.096410304
149	0xbd849f42	-0.064756885
150	0xbd9264ac	-0.07148108
151	0xbd93d661	-0.07218624
152	0xbd770fa6	-0.060317658
153	0xbdea4648	-0.11439186
154	0xbdb6ebe0	-0.08931708
155	0x3e23ed0d	0.16008396
156	0xbdc382a9	-0.09546406
157	0xbdaa64ab	-0.08319982
158	0xbdb45c10	-0.08806622
159	0xbdae1269	-0.08499605
160	0xbdc66d2a	-0.0968879
161	0xbdc99287	-0.09842401
162	0x3f37c447	0.7178387
163	0xbdb63dbf	-0.08898496
164	0xbdbdf87c	-0.0927591
165	0xbd8e55e6	-0.069499776
166	0xbcf9ab4c	-0.030477189
167	0xbdd54767	-0.104140095
168	0x3f53cfa2	0.827387
169	0xbdba079b	-0.09083482
170	0xbda55251	-0.08072341
171	0x3ed4428f	0.4145703
172	0xbd97999c	-0.074023455
173	0x3f8b8ede	1.0902975
174	0xbd995cf1	-0.0748843
175	0x3ef5ecd9	0.48032263
176	0xbdd60081	-0.10449315
177	0xbd89d8c2	-0.067307964
178	0x3f807660	1.0036125
179	0x3e359bee	0.17735264
180	0xbd963f19	-0.07336254
181	0xbda6fbb5	-0.08153478
182	0xbddebea6	-0.10876207
183	0xbda53d82	-0.08068372
184	0xbdc35e44	-0.09539464
185	0x3f334a45	0.700352
186	0xbd9deb38	-0.0771088
187	0xbdb517c7	-0.08842426
188	0xbdd6f52c	-0.104959816
189	0x3e0c94a6	0.1372858
190	0xbdc08ccc	-0.09401855
191	0xbde098aa	-0.10966618
192	0xbd077629	-0.03307167
193	0xbd81ac64	-0.06331709
194	0xbd690474	-0.056889012
195	0xbdb3d73a	-0.087812856
196	0x3eb05178	0.34437156
197	0xbd762b35	-0.0600998
198	0xbdb172da	-0.08664484
199	0xbde035e4	-0.10947779
200	0xbaa4dd68	-0.0012578191
201	0x3c45c131	0.012069986
202	0xbe232829	-0.15933289
203	0x3d972d5f	0.07381701
204	0x3b25b7d0	0.0025286563
205	0xbb29b870	-0.0025897287
206	0x3ec63df5	0.38719144
207	0x3b887868	0.004164744
208	0x3cd8912f	0.026436416
209	0xbcbb3522	-0.022852484
210	0xbbd22245	-0.0064127767
211	0x3c127ed0	0.008941367
212	0x3bd834cc	0.0065980908
213	0xbad1c20d	-0.0016003266
214	0xbb8b824c	-0.004257476
215	0x3b886ea8	0.004163582
216	0xbc6badc3	-0.01438469
217	0x3c74c683	0.014939907
218	0xbde47fe4	-0.11157206
219	0x3e0ca819	0.13735999
220	0xbc511146	-0.012760466
221	0x3ea9c869	0.33160713
222	0x3b9c55d6	0.0047709746
223	0x3d003625	0.031301636
224	0x3c25e72b	0.0101259155
225	0xbe080bd5	-0.13285764
226	0x3bf18f33	0.007371807
227	0xbc7cd12f	-0.015430733
228	0x3c168294	0.009186406
229	0x3e3ea5ac	0.18617886
230	0x3c6e9367	0.014561511
231	0x3c40720c	0.011745941
232	0x3c2cccd4	0.010546882
233	0xbe19d545	-0.15022762
234	0xbbb717ff	-0.0055875774
235	0x3ca0cc5b	0.019628694
236	0xbc3bfc76	-0.011473766
237	0xbedfcaf9	-0.43709543
238	0x3ebf2dae	0.37339538
239	0x3ba9dbe9	0.005183686
240	0xbb45da04	-0.0030189762
241	0xbb4d2e53	-0.003130813
242	0x3999d2b4	0.0002933942
243	0xbc06cc57	-0.008227429
244	0xbeb06c57	-0.34457657
245	0x3e6be29a	0.2303566
246	0xbcd49425	-0.025949547
247	0xba96bbad	-0.0011500024
248	0x3c71f7de	0.014768569
249	0xbc7eab68	-0.015543796
250	0xbc8861ca	-0.016648192
251	0xbcc4b180	-0.02401042
252	0xbb849500	-0.0040460825
253	0xbcb39529	-0.021921711
254	0x3baf24d0	0.0053449646
255	0xbc5bcf5c	-0.013416138
